cpts/ddpg_01_Pendulum-v0_act.pth (torch_old, 489993 bytes, 5 tensors)

actor.0.weight f4 [400, 3]
0.0805295 -0.30612254 -0.2818302 0.087186046 0.09528786 -0.4459766 0.14472495 -0.22483647
0.11587738 0.45220178 -0.76617676 0.23738204 -0.10312405 -0.25319833 -0.36736092 -0.087564066
-0.2856432 0.104399726 0.32807356 0.43678936 -0.07847791 -0.20549594 -0.3132722 0.38792983
-0.32537052 0.60735846 -0.4445622 0.30794433 0.4659714 0.28123787 -0.41278157 0.7425596
0.39934674 -0.04592602 -0.6507725 0.44862902 -0.1473793 0.33570522 0.22287624 0.106892236
-0.30683544 -0.06246988 -0.2732569 -0.6384114 -0.27430606 -0.38859066 0.514079 0.099269055
0.289963 0.51214397 -0.31483868 0.06606025 0.21081828 0.5061176 -0.21777228 0.37947035
-0.16672328 -0.12732296 0.62276167 -0.51995283 -0.33803752 -0.73061514 -0.3462647 0.24797714
0.4137344 0.16030636 -0.6175168 -0.03307211 0.40806285 0.1419211 -0.310143 0.47309163
0.16587433 0.053171594 0.5833519 0.15099677 0.5099197 -0.20282239 0.43785885 -0.39211732
0.34743187 -0.16832009 0.0955208 0.2627816 0.25132564 0.5174452 0.1271811 0.06315993
-0.6106535 -0.07860444 0.5478869 -0.24922024 0.2566327 0.33175683 -0.35880455 -0.5536616
-0.5530731 -0.321485 -0.46969992 -0.120844744 0.5651909 -0.5268956 0.16613817 -0.5192126
0.061222564 -0.46633342 -0.31598493 -0.15400906 -0.009893232 0.002266852 0.20412433 -0.4640927
-0.08452943 -0.52048165 0.4496697 -0.22096351 0.5156576 0.11054666 0.4689974 -0.28333792
-0.34749386 -0.4012091 -0.37513945 -0.50899523 0.3179658 0.115858175 0.42337564 -0.3476794
0.20040964 0.25272304 0.46722776 -0.15988137 -0.66200703 0.338799 0.11164706 0.5726372
-0.38589942 0.4563441 -0.04567532 -0.17087299 -0.35511553 -0.35427803 0.23376583 0.40011847
0.38254073 -0.5172159 -0.18479894 -0.32450783 -0.6743393 -0.0885296 -0.58026755 0.12249731
-0.46444187 0.13053948 0.40654022 0.1854439 0.24520883 -0.58663285 0.116796724 -0.081412934
-0.5051233 0.33520177 -0.3457008 -0.5831662 -0.2612876 0.17734891 0.4399489 0.4501177
-0.010364796 0.5917351 0.41051275 0.23655325 -0.45633823 0.07911301 0.27324876 -0.06872076
0.5500342 0.24104686 -0.59025073 -0.43229833 -0.5077799 0.60953707 0.17083918 -0.23903371
0.16426273 -0.47949564 -0.58566743 0.20959038 0.026077533 0.52596223 0.16728827 0.3536759
0.23368753 0.1598118 -0.5062415 0.37084183 -0.36064035 0.123492785 -0.12626722 -0.43417674
-0.13116819 -0.39488095 -0.4256345 -0.46521813 -0.3891716 -0.23222846 0.2338734 -0.50413543
0.42265642 0.106341384 -0.36479425 0.24215445 0.48198432 0.43280345 0.094848596 0.2454703
-0.06720202 -0.27532807 0.5670431 -0.6119697 0.16359147 -0.031116333 0.2979185 0.63400596
-0.13782097 -0.36804998 0.34766334 0.31258717 0.14704882 -0.24187641 -0.09895242 -0.20485996
0.2374083 0.22697139 0.17101155 0.52182686 0.57389134 -0.36416358 -0.47705916 -0.27420697
0.023937782 -0.08774104 -0.021734308 -0.41838434 -0.21966548 0.18061039 0.25026512 0.49524984
-0.31035274 -0.1298191 0.16089931 0.09344344 -0.40369156 0.5566879 0.107908316 0.23720583
00000000: a7ec a43d 18bc 9cbe 0c4c 90be 998e b23d
00000010: 4826 c33d 0b57 e4be c732 143e 883b 66be
00000020: 1f51 ed3d fe86 e73e 2924 44bf 4714 733e
00000030: b432 d3bd 36a3 81be bb16 bcbe ca54 b3bd
00000040: d33f 92be 86cf d53d 42f9 a73e dba2 df3e
00000050: 07b9 a0bd 876d 52be 3765 a0be bd9e c63e
00000060: f796 a6be d87b 1b3f a89d e3be e1aa 9d3e
00000070: ce93 ee3e 69fe 8f3e 1b58 d3be 6318 3e3f
00000080: 2d77 cc3e ec1c 3cbd 0799 26bf b4b2 e53e
00000090: 99ea 16be 8ee1 ab3e ab39 643e 51ea da3d
000000a0: 8919 9dbe 6be0 7fbd 54e8 8bbe ee6e 23bf
000000b0: d871 8cbe 5bf5 c6be ae9a 033f 934d cb3d
000000c0: 0876 943e de1b 033f 8932 a1be 994a 873d
000000d0: bfe0 573e ec90 013f b2ff 5ebe f049 c23e
000000e0: 82b9 2abe f360 02be 4f6d 1f3f a11b 05bf
000000f0: 4113 adbe 9809 3bbf 9b49 b1be b8ed 7d3e
00000100: ffd4 d33e 5a27 243e 9515 1ebf 9f76 07bd
00000110: 9ded d03e c453 113e 10cb 9ebe 1139 f23e
00000120: f6da 293e 75ca 593d 8d56 153f e69e 1a3e
00000130: 198a 023f acb0 4fbe 092f e03e 9ac3 c8be
00000140: 97e2 b13e 1a5c 2cbe 69a0 c33d 4f8b 863e
00000150: c1ad 803e 4a77 043f c33b 023e fe59 813d
00000160: ca53 1cbf 5dfb a0bd 5142 0c3f 9733 7fbe
00000170: 5c65 833e 08dc a93e 3bb5 b7be c4bc 0dbf
00000180: 3396 0dbf af99 a4be 827c f0be 737d f7bd
00000190: 5ab0 103f a1e2 06bf 2020 2a3e 1eeb 04bf
000001a0: 83c4 7a3d 41c3 eebe c7c8 a1be 8db4 1dbe
000001b0: 3917 22bc 778f 143b f805 513e 8f9d edbe
000001c0: c41d adbd 493e 05bf 1b3b e63e 4244 62be
000001d0: 2302 043f 4a66 e23d 6d20 f03e ab11 91be
000001e0: b7ea b1be 476b cdbe 4712 c0be 834d 02bf
000001f0: 6acc a23e 0d47 ed3d b1c4 d83e 0903 b2be
00000200: 2f38 4d3e ea64 813e 7a38 ef3e f1b7 23be
00000210: 4b79 29bf 1077 ad3e 37a7 e43d 5a98 123f
00000220: 9c94 c5be efa5 e93e 0b16 3bbd 54f9 2ebe
00000230: b4d1 b5be ee63 b5be 4f60 6f3e 54dc cc3e
00000240: 61dc c33e 4368 04bf ef3b 3dbe e425 a6be
00000250: 80a1 2cbf 024f b5bd 6a8c 14bf dfdf fa3d
00000260: 53cb edbe 24ac 053e 0a26 d03e 01e5 3d3e
00000270: 0618 7b3e 922d 16bf 1f33 ef3d d3bb a6bd
00000280: c34f 01bf 919f ab3e b2ff b0be 614a 15bf
00000290: 7dc7 85be f49a 353e fb40 e13e d475 e63e
000002a0: 1bd1 29bc f47b 173f ba2e d23e 043b 723e
000002b0: 2aa5 e9be 0006 a23d 43e7 8b3e 78bd 8cbd
000002c0: 0bcf 0c3f fdd4 763e ac1a 17bf 3556 ddbe
000002d0: ddfd 01bf 9f0a 1c3f 77f0 2e3e 41c5 74be
000002e0: 7d34 283e 7480 f5be 4dee 15bf dc9e 563e
000002f0: 8da0 d53c 76a5 063f 9e4d 2b3e 0215 b53e
00000300: c94b 6f3e b4a5 233e 0b99 01bf fbde bd3e
00000310: daa5 b8be c9e9 fc3d 324c 01be 6a4c debe
00000320: f450 06be d62d cabe c4ec d9be 1231 eebe
00000330: 8041 c7be 4ccd 6dbe 827c 6f3e 050f 01bf
00000340: 6c66 d83e 83c9 d93d 50c6 babe 56f7 773e
00000350: a6c6 f63e 6a98 dd3e fb3f c23d 915c 7b3e
00000360: 36a1 89bd cdf7 8cbe bd29 113f 0caa 1cbf
00000370: 8684 273e aee7 febc c688 983e 374e 223f
00000380: f120 0dbe 0c71 bcbe ee00 b23e 6d0b a03e
00000390: f793 163e 73ae 77be 91a7 cabd cfc6 51be
000003a0: 291b 733e 306b 683e a71d 2f3e 7296 053f
000003b0: 8bea 123f a673 babe 1941 f4be db64 8cbe
000003c0: 2b19 c43c 93b1 b3bd 260c b2bc 7936 d6be
000003d0: fdef 60be eef1 383e c022 803e 6391 fd3e
000003e0: 8ee6 9ebe 4cef 04be cac2 243e 465f bf3d
000003f0: a9b0 cebe 1983 0e3f 09ff dc3d 16e6 723e

actor.0.bias f4 [400]
0.40421006 -0.1255335 0.16094278 -0.0012180561 -0.23754333 -0.12823792 0.4584653 0.3964698
0.41594952 -0.23561288 0.54113895 -0.20270348 -0.37849492 -0.3850839 -0.014575348 0.5257842
0.27094805 0.39912313 0.2613607 0.38929692 -0.42801857 -0.20147973 -0.2866026 0.24682012
0.010106332 -0.46823406 -0.098744325 0.092354976 0.17186755 0.48859712 0.06638462 0.043055754
0.14590347 0.3668443 0.16037561 0.035113543 -0.48886752 0.31974143 0.49039093 -0.5283085
0.53976667 0.31025285 -0.34725454 0.005480872 -0.13796753 -0.5618594 0.49131656 -0.08104864
-0.3302757 0.050661452 -0.43961534 0.2518263 0.37554428 -0.54272866 0.008143158 0.020558242
-0.37632456 0.112394705 -0.22396158 0.48885423 -0.18166435 -0.32769296 0.49097556 0.31250477
-0.32657152 0.5624805 0.5772721 -0.28320622 -0.23907751 0.54396415 -0.16116251 0.0943229
-0.06678576 0.49737832 0.09995616 -0.105941266 0.55682737 0.4867882 0.00023268013 0.41945234
0.39202908 0.011163763 0.45872477 0.68633133 0.39145157 0.059905734 0.6367496 0.5525806
-0.28219366 -0.22268465 0.03937927 -0.44909003 0.18649764 -0.3176946 0.33574325 0.16855739
-0.3186391 0.4428865 0.57344526 0.36356378 0.19103839 0.36221603 -0.49471936 0.15212537
-0.13540235 -0.5280729 0.44706693 0.2947749 0.5493268 -0.48439282 -0.40341017 -0.5335042
0.43243417 -0.23136221 0.52338135 0.34758928 0.02999759 0.21123181 -0.15406448 0.019713933
0.38891244 0.20933439 -0.20231615 0.6281742 0.048300028 0.32807437 -0.28141773 0.51630294
0.4926236 0.25950044 0.052736063 -0.13372138 0.46958938 -0.35881564 -0.45435202 0.06772117
-0.43119463 0.5137422 -0.44926566 0.21778733 0.16972157 -0.49501213 0.02156278 -0.21096896
-0.12413761 0.7152061 -0.5233084 -0.09598125 -0.19366995 0.0686371 -0.18458614 0.4105361
0.21148333 0.4551952 -0.25143024 0.07535685 0.2895028 -0.32074443 0.118275344 0.07491009
-0.17468816 -0.54250795 0.609084 0.25147045 0.42895767 0.16318421 0.022768898 0.31794655
-0.11225349 0.308301 -0.30774152 -0.10810821 -0.50217754 -0.0446923 -0.39695373 -0.08954502
0.45325232 -0.18933767 0.30070478 -0.11825047 -0.17206247 -0.153279 -0.15366869 -0.52119404
-0.383629 -0.09367308 -0.46353894 -0.42874634 0.4375068 0.08654688 -0.41141957 -0.37829506
0.01137593 0.09136439 0.08484645 -0.26923138 -0.3371233 -0.47338766 -0.20102419 0.013769007
0.37406912 0.54225904 0.102978736 0.15506688 -0.2664168 -0.14406413 -0.06431746 -0.5379089
-0.2573002 -0.07382402 0.033140197 -0.2295958 0.08369728 0.138434 -0.111055754 -0.3417151
-0.5377745 0.42565376 -0.17775486 -0.19955124 0.3823645 -0.02885394 0.19308078 0.08271811
-0.02018875 -0.23014951 -0.15045264 -0.26279756 0.49742854 0.3366411 -0.27790427 0.41812494
0.04921829 -0.08520268 -0.3994023 -0.4607939 -0.23940395 -0.06809251 0.26768854 0.0474741
0.5238269 0.22988057 0.12182055 -0.18029813 -0.5779418 -0.45300686 0.1375078 0.10381022
-0.21153246 0.30331585 -0.28340584 0.38702276 -0.08065027 -0.44650057 0.1050222 -0.11037134
00000000: 9ff4 ce3e db8b 00be 2fce 243e 2ea7 9fba
00000010: 8f3e 73be cd50 03be f7bb ea3e 17fe ca3e
00000020: 56f7 d43e 8144 71be 1588 0a3f 8091 4fbe
00000030: 16ca c1be b829 c5be 71cd 6ebc cb99 063f
00000040: b4b9 8a3e de59 cc3e 12d1 853e ed51 c73e
00000050: 4025 dbbe b450 4ebe 93bd 92be 6abe 7c3e
00000060: 0795 253c 60bc efbe 773a cabd 9b24 bd3d
00000070: 0cfe 2f3e 6729 fa3e a9f4 873d 3b5b 303d
00000080: b867 153e 04d3 bb3e 8139 243e 38d3 0f3d
00000090: d84c fabe 26b5 a33e 8514 fb3e 3a3f 07bf
000000a0: 262e 0a3f 76d9 9e3e 59cb b1be e398 b33b
000000b0: 5c47 0dbe 05d6 0fbf d88d fb3e d4fc a5bd
000000c0: e619 a9be 6282 4f3d 4315 e1be 60ef 803e
000000d0: 5747 c03e 44f0 0abf e16a 053c c269 a83c
000000e0: 9dad c0be 322f e63d 2f56 65be 1a4b fa3e
000000f0: 3806 3abe 5fc7 a7be 2661 fb3e a000 a03e
00000100: 6234 a7be b9fe 0f3f 1bc8 133f 6800 91be
00000110: bcd0 74be 3c41 0b3f c907 25be 5d2c c13d
00000120: f9c6 88bd 5fa8 fe3e d1b5 cc3d bcf7 d8bd
00000130: 3d8c 0e3f 4e3c f93e 99fb 7339 75c2 d63e
00000140: 09b8 c83e 37e8 363c f9dd ea3e 69b3 2f3f
00000150: 576c c83e b75f 753d 0602 233f ec75 0d3f
00000160: b07b 90be 7207 64be 284c 213d 21ef e5be
00000170: 3df9 3e3e dea8 a2be 8ae6 ab3e 4f9a 2c3e
00000180: aa24 a3be 05c2 e23e 4fcd 123f 0825 ba3e
00000190: 919f 433e 6174 b93e db4b fdbe c1c6 1b3e
000001a0: eaa6 0abe c92f 07bf f5e5 e43e bcec 963e
000001b0: aea0 0c3f 5602 f8be c78b cebe bb93 08bf
000001c0: 0368 dd3e 37ea 6cbe 52fc 053f 39f7 b13e
000001d0: 82bd f53c 274d 583e 14c3 1dbe 1d7f a13c
000001e0: 881f c73e c15b 563e f72b 4fbe 06d0 203f
000001f0: 40d6 453d 5df9 a73e fc15 90be 6e2c 043f
00000200: 2939 fc3e 3edd 843e c501 583d 42ee 08be
00000210: 056e f03e afb6 b7be d4a0 e8be 66b1 8a3d
00000220: 8bc5 dcbe 9c84 033f 2606 e6be a403 5f3e
00000230: 7ecb 2d3e 3b72 fdbe 6da4 b03c 3f08 58be
00000240: dc3b febd bf17 373f 8af7 05bf d191 c4bd
00000250: 6a51 46be 9c91 8c3d 2604 3dbe ca31 d23e
00000260: 168f 583e 580f e93e 77bb 80be b154 9a3d
00000270: b639 943e 9d38 a4be 583a f23d 766a 993d
00000280: 74e1 32be cde1 0abf eeec 1b3f bcc0 803e
00000290: 57a0 db3e c319 273e d785 ba3c e4c9 a23e
000002a0: 28e5 e5bd a1d9 9d3e 4c90 9dbe d667 ddbd
000002b0: b58e 00bf 460f 37bd 853d cbbe 6163 b7bd
000002c0: b010 e83e bce1 41be faf5 993e 4d2d f2bd
000002d0: 2531 30be 2cf5 1cbe 535b 1dbe f96c 05bf
000002e0: 056b c4be acd7 bfbd fa54 edbe a484 dbbe
000002f0: e400 e03e 7e3f b13d 96a5 d2be e4af c1be
00000300: 1c62 3a3c 411d bb3d fac3 ad3d b2d8 89be
00000310: 6d9b acbe de5f f2be 49d9 4dbe 6797 613c
00000320: fd85 bf3e 7dd1 0a3f 84e6 d23d dac9 1e3e
00000330: c867 88be 8c85 13be dfb8 83bd 66b4 09bf
00000340: dabc 83be 0c31 97bd 04be 073d 291b 6bbe
00000350: 7b69 ab3d a4c1 0d3e 3371 e3bd 48f5 aebe
00000360: 97ab 09bf 4aef d93e 5f05 36be 2957 4cbe
00000370: 48c5 c33e 195f ecbc f8b6 453e 1d68 a93d
00000380: e162 a5bc 50ac 6bbe 4210 1abe 678d 86be
00000390: f4ae fe3e 395c ac3e 7849 8ebe 7914 d63e
000003a0: 1e99 493d be7e aebd 757e ccbe 2eed ebbe
000003b0: 4f26 75be 1674 8bbd 790e 893e 3474 423d
000003c0: 8519 063f d065 6b3e 0d7d f93d 13a0 38be
000003d0: fef3 13bf 84f0 e7be d8ce 0c3e 749a d43d
000003e0: f79b 58be 374c 9b3e 921a 91be d927 c63e
000003f0: f82b a5bd b99b e4be e115 d73d 5e0a e2bd

actor.2.weight f4 [300, 400]
0.03742781 -0.03638243 -0.079417266 -0.06850695 0.019374713 -0.0396397 0.050705776 0.0075283214
0.04266418 0.026179358 0.081429146 -0.15656099 0.0015542532 -0.02842824 0.028969504 0.091139846
-0.005920866 0.0058864607 0.059940927 0.031126428 0.07057895 0.06351039 -0.09539278 0.0061831437
0.031943377 -0.07775532 -0.05728572 -0.067596085 0.076550774 0.07947837 -0.06664607 0.041272633
0.0034876459 -0.017702037 -0.038940348 0.07896859 -0.086462624 0.06077809 -0.047774427 -0.06783491
0.08154638 0.0749294 0.014700019 -0.036220107 0.016937802 -0.029174026 0.07204953 -0.055088423
-0.12240828 0.071950644 -0.029869398 0.12526096 -0.048106544 -0.047297157 0.07915165 -0.006769638
0.029148595 -0.06847278 -0.06813897 -0.02247678 -0.018856797 0.015579467 0.04675055 0.008862271
-0.06349941 -0.00021551848 0.09044181 0.078738675 -0.058208484 0.09147987 -0.085959285 0.0017336134
-0.08231292 0.05730061 -0.014806476 0.023762878 0.08024336 0.022755696 -0.011989436 0.07848988
0.065214574 -0.019713655 -0.011052906 0.14381641 0.06596357 0.05297697 0.112509385 -0.021804465
-0.094024576 -0.03960454 -0.08243344 -0.11442599 -0.071133 -0.10312346 -0.013710211 0.07505263
-0.035436 0.15312749 0.043288395 0.01582571 0.014621335 0.13094835 0.016369099 0.019057842
-0.027087925 -0.069037504 0.026379436 -0.009753116 0.06777606 -0.13706319 -0.027703537 -0.14358394
0.066820316 -0.029384393 -0.03846411 0.038671784 0.052765325 0.037585463 -0.010384826 0.0535227
0.013142451 -0.05096727 -0.005869971 0.09431975 0.07157275 -0.020928048 -0.0014106167 0.08804276
0.026268326 0.112527296 -0.029718673 -0.06653018 0.042768974 -0.124187365 -0.09709958 0.044304308
-0.006426346 0.038448513 0.002383874 0.07542976 -0.027679745 0.08241884 0.039451495 -0.15904729
-0.07582544 0.045399826 -0.01399342 -0.030297713 0.06269824 0.12004822 -0.009380246 0.058766767
-0.021701561 -0.0694571 -0.03871089 0.060474563 0.044169042 -0.099792324 -0.07875487 -0.058661167
-0.056175716 -0.06482623 0.040291373 -0.06798808 0.09763501 0.08694128 0.024257805 -0.024436237
0.029700924 0.025818255 0.123626046 0.040258076 -0.037229873 0.052426133 -0.07396382 0.11808466
-0.02331462 0.027025314 0.042447116 -0.06827327 -0.018756913 0.03796686 -0.075161345 0.066625856
-0.13258019 0.0657718 0.011786692 -0.17594874 0.061398227 -0.0667558 0.07884485 -0.02882321
0.012926099 -0.021234358 0.06466604 -0.05035369 0.0015496339 -0.07326244 -0.024203165 -0.019524261
0.00523836 0.075004905 -0.035764385 0.10483566 -0.043872915 0.0325723 0.06071087 -0.00069188036
-0.007860662 -0.0512068 0.012890031 0.061279528 0.083411 -0.059679728 0.1348933 -0.12290208
0.00021855514 0.061667 0.09342038 -0.0867886 0.029035984 -0.013231457 -0.07292619 -0.003918108
0.045140944 0.056485284 -0.08951284 0.040740095 -0.020490406 0.004807464 -0.009621947 -0.018187538
0.09855704 0.0073045827 0.05949738 -0.039855167 -0.055535313 0.013363902 -0.054355178 0.059722785
0.094207905 0.08616046 0.001565449 0.03327484 -0.0010512071 0.08601098 0.064741544 -0.022702837
0.09797045 -0.06330866 0.03825515 0.052827246 -0.07870215 -0.041632228 -0.055689536 -0.05492454
00000000: e74d 193d be05 15bd 85a5 a2bd 5f4d 8cbd
00000010: b8b7 9e3c 3d5d 22bd dcb0 4f3d 23b0 f63b
00000020: a3c0 2e3d 1876 d63c 53c4 a63d 8651 20be
00000030: 15b8 cb3a 57e2 e8bc 7451 ed3c 87a7 ba3d
00000040: d303 c2bb 36e3 c03b 9e84 753d dafc fe3c
00000050: b28b 903d bc11 823d 4a5d c3bd f89b ca3b
00000060: 0fd7 023d 2e3e 9fbd 6ea4 6abd d16f 8abd
00000070: a7c6 9c3d 8ec5 a23d bc7d 88bd 7e0d 293d
00000080: fd90 643b dd03 91bc ea7f 1fbd 49ba a13d
00000090: 5113 b1bd 72f2 783d 1eaf 43bd 07ed 8abd
000000a0: ca01 a73d 9674 993d 59d8 703c 895b 14bd
000000b0: 25c1 8a3c 5efe eebc b48e 933d 66a4 61bd
000000c0: 31b1 fabd dc5a 933d abb0 f4bc 6944 003e
000000d0: 5e0b 45bd aaba 41bd 431a a23d d7d3 ddbb
000000e0: 09c9 ee3c 753b 8cbd 728c 8bbd 3921 b8bc
000000f0: 9279 9abc 0541 7f3c 817d 3f3d 0f33 113c
00000100: fb0b 82bd cdfc 61b9 8e39 b93d be41 a13d
00000110: 056c 6ebd cc59 bb3d 6c0b b0bd 6a3a e33a
00000120: ad93 a8bd 0bb4 6a3d dd96 72bc 5eaa c23c
00000130: a156 a43d 276a ba3c 576f 44bc 4dbf a03d
00000140: 388f 853d 887e a1bc 3f17 35bc 9c44 133e
00000150: e817 873d 61fe 583d 526b e63d 479f b2bc
00000160: f58f c0bd 5f38 22bd ddd2 a8bd 2c58 eabd
00000170: 2eae 91bd 6532 d3bd cba0 60bc 31b5 993d
00000180: 5725 11bd 74cd 1c3e 2c4f 313d eba4 813c
00000190: 538e 6f3c 5317 063e 7d18 863c 311f 9c3c
000001a0: 7fe7 ddbc 8963 8dbd b019 d83c 89cb 1fbc
000001b0: 2dce 8a3d 4b5a 0cbe 87f2 e2bc ab07 13be
000001c0: 17d9 883d 8ab7 f0bc 8b8c 1dbd 4e66 1e3d
000001d0: 7420 583d 37f3 193d 1e25 2abc 9e3a 5b3d
000001e0: 6f53 573c 0ec3 50bd e358 c0bb b72a c13d
000001f0: bc94 923d 4c71 abbc 71e4 b8ba c34f b43d
00000200: ac30 d73c b674 e63d 9374 f3bc fa40 88bd
00000210: 852e 2f3d f255 febd 25dc c6bd 6f78 353d
00000220: 1994 d2bb 307c 1d3d c53a 1c3b eb7a 9a3d
00000230: a2c0 e2bc 35cb a83d e497 213d 4bdd 22be
00000240: 5e4a 9bbd 2bf5 393d a844 65bc e932 f8bc
00000250: ef67 803d d7db f53d 9aaf 19bc 6cb5 703d
00000260: 79c7 b1bc 863f 8ebd 4f8f 1ebd 2db4 773d
00000270: 99ea 343d eb5f ccbd 3c4a a1bd b146 70bd
00000280: 8218 66bd 9dc3 84bd 9108 253d 563d 8bbd
00000290: ddf4 c73d 450e b23d 4eb8 c63c 812e c8bc
000002a0: 5a4f f33c ce80 d33c a72f fd3d a7e5 243d
000002b0: 5a7e 18bd c9bc 563d 587a 97bd 5fd6 f13d
000002c0: 4dfe bebc 3164 dd3c 07dd 2d3d dbd2 8bbd
000002d0: 19a8 99bc 2383 1b3d 31ee 99bd 2373 883d
000002e0: 1ac3 07be 5eb3 863d f81c 413c e82b 34be
000002f0: b57c 7b3d 44b7 88bd 6979 a13d a71e ecbc
00000300: fdc7 533c adf3 adbc a16f 843d ac3f 4ebd
00000310: 161d cb3a 9e0a 96bd b745 c6bc 58f1 9fbc
00000320: 8ca6 ab3b 2c9c 993d ad7d 12bd 14b4 d63d
00000330: 16b4 33bd 886a 053d f6ab 783d 4e5f 35ba
00000340: 02ca 00bc 39be 51bd b530 533c 3e00 7b3d
00000350: 63d3 aa3d bb72 74bd 7821 0a3e 16b4 fbbd
00000360: f32b 6539 8996 7c3d 2f53 bf3d 39be b1bd
00000370: dfdc ed3c c1c8 58bc 545a 95bd 7963 80bb
00000380: b6e5 383d 1d5d 673d 8252 b7bd 16df 263d
00000390: 7fdb a7bc ee87 9d3b 5fa5 1dbc 08fe 94bc
000003a0: 46d8 c93d 485b ef3b 86b3 733d 2c3f 23bd
000003b0: ff78 63bd 45f4 5a3c 89a3 5ebd e19f 743d
000003c0: 13f0 c03d e574 b03d c12f cd3a 334b 083d
000003d0: a8c8 89ba 8626 b03d 3797 843d 4dfb b9bc
000003e0: bba4 c83d f9a7 81bd 6fb1 1c3d 6261 583d
000003f0: 982e a1bd 8e86 2abd b61a 64bd 8ef8 60bd

actor.2.bias f4 [300]
0.06974141 -0.0051607043 0.017460613 0.013392258 -0.0152628645 0.025133288 -0.0011351532 0.012976274
0.06914303 -0.03385053 0.032468468 -0.03302594 0.07823439 0.02423955 -0.040446494 -0.03676831
-0.049538538 0.031626742 -0.013801311 -0.028749892 -0.05069022 0.03958517 -0.022109823 0.089534946
0.073938 -0.05649925 0.01453369 0.010036017 0.00082062744 0.04911824 -0.009538809 -0.034436744
-0.043934815 -0.0022036026 0.006342164 0.0041163163 -0.043841634 0.04990177 -0.008171421 0.067084774
0.025166878 0.04291632 0.026650187 0.032410845 0.00491969 -0.037106685 -0.034448504 0.045301516
-0.017962525 -0.04539949 -0.047017597 0.055680547 0.009989263 0.044542138 0.016681345 -0.017328132
0.023851922 -0.05886691 0.06226185 -0.08025037 -0.03564821 0.023714576 0.028454084 0.027222835
0.009519038 -0.0413784 -0.032659996 0.078084454 -0.037997913 0.019063063 -0.057679012 0.00035241834
0.010816693 0.035611056 -0.008636066 -0.056709163 0.02884336 0.014705699 -0.026702717 0.06009728
-0.05178193 0.02430889 -0.07870242 -0.048468497 0.05388892 -0.034530655 0.035776902 0.045771062
0.036139246 0.010004329 0.017099086 0.0139489025 -0.055472106 -0.029904766 -0.009725633 -0.0030419684
-0.029658277 0.01155823 -0.0018770731 -0.022183558 -0.03345405 0.070587926 -0.045376822 -0.027118681
-0.0007939758 0.07247724 0.0060706367 -0.029749064 -0.015346126 0.024305886 -0.054967593 -0.019068783
0.01503605 0.0015298979 -0.045454297 -0.05733608 0.0135625275 -0.035937265 -0.035727393 -0.04314812
0.022977035 0.012898984 -0.00082856097 -0.08429634 0.024341933 -0.04197708 0.00852045 -0.08540048
0.08635428 0.0030503564 0.045096077 0.03967031 0.07389377 -0.019441074 0.022256307 0.01715012
-0.0056420704 -0.015958179 -0.0139262825 0.046671204 0.027744502 -0.009097096 0.026576795 -0.01052495
0.08350264 0.02680462 0.0022969453 -0.034811053 0.0012016507 -0.051493816 0.068581074 0.0100568775
0.10317025 0.008874153 0.021466961 0.03942986 0.045151744 0.02304552 0.0044747866 0.052859314
-0.011468188 -0.003095725 0.017383952 0.012642415 -0.012978207 -0.02675758 -0.0074697025 0.046021745
0.051346418 0.029876301 0.028319722 -0.015819374 0.03262559 -0.04729304 0.011549093 -0.0040183733
0.012373549 0.01971055 0.038514387 0.028348695 -0.004268928 0.003385257 -0.008223966 -0.004073585
-0.059555825 -0.016301267 0.022912554 -0.061408892 -0.010148667 0.082802944 -0.028329391 -0.04377046
0.030057343 0.0389065 -0.0487159 0.0046999557 0.04304303 -0.017935248 -0.058901355 -0.03467977
-0.039051138 0.055837803 -0.024255471 -0.010473652 0.039619047 0.031962402 -0.016660005 0.033964187
0.084730014 -0.0037815936 0.023500897 0.018742906 0.031289317 -0.02042432 0.029029015 0.042952497
-0.01568572 0.078531675 -0.053996984 0.021585073 -0.034910653 0.01731619 0.024034297 0.034378994
0.0024059915 0.03484803 0.023118008 -0.033797566 0.06469129 0.045392875 0.045143835 0.049940154
0.019692112 0.0133609865 -0.016176933 0.01245879 0.02928581 0.008998581 0.02842507 -0.011304742
-0.04816305 0.033842474 0.00221543 -0.044538286 -0.05867016 -0.0025444822 -0.024087518 0.033806495
-0.020208484 0.02627521 -0.052241623 0.06529876 0.019131653 -0.009777622 -0.046412162 0.01090475
00000000: 96d4 8e3d 201b a9bb 8f09 8f3c 346b 5b3c
00000010: 1811 7abc 53e4 cd3c 6cc9 94ba 709a 543c
00000020: dc9a 8d3d daa6 0abd a8fd 043d 3546 07bd
00000030: 5a39 a03d 0592 c63c 39ab 25bd 5e9a 16bd
00000040: ece8 4abd 0b8b 013d e51e 62bc e584 ebbc
00000050: 8ca0 4fbd 0f24 223d a91f b5bc 195e b73d
00000060: ce6c 973d c26b 67bd b71e 6e3c 1b6e 243c
00000070: 601f 573a 3530 493d aa48 1cbc 8b0d 0dbd
00000080: fef4 33bd 516a 10bb edd1 cf3b 2ae2 863b
00000090: 4993 33bd cc65 4c3d 6ce1 05bc be63 893d
000000a0: c52a ce3c 06c9 2f3d 7e51 da3c 3cc1 043d
000000b0: 5a35 a13b 2efd 17bd e019 0dbd 158e 393d
000000c0: 2526 93bc d1f4 39bd 8695 40bd 4911 643d
000000d0: 01aa 233c d171 363d 51a7 883c baf3 8dbc
000000e0: 1b65 c33c 6e1e 71bd 4806 7f3d 4e5a a4bd
000000f0: dc03 12bd 1245 c23c 8a18 e93c 6c02 df3c
00000100: bdf5 1b3c 667c 29bd 7dc6 05bd beea 9f3d
00000110: b3a3 1bbd 242a 9c3c d440 6cbd cac4 b839
00000120: 8038 313c e6dc 113d 497e 0dbc de47 68bd
00000130: e948 ec3c 2cf0 703c a8bf dabc 9128 763d
00000140: 4a19 54bd 7023 c73c bc2e a1bd e786 46bd
00000150: a1ba 5c3d 0470 0dbd cd8a 123d 707a 3b3d
00000160: bf06 143d 32e9 233c 6213 8c3c f089 643c
00000170: b836 63bd d7fa f4bc 4358 1fbc c35b 47bb
00000180: eaf5 f2bc bb5e 3d3c 1f08 f6ba 4bba b5bc
00000190: 1d07 09bd 6790 903d 0cdd 39bd ff27 debc
000001a0: d022 50ba f26e 943d 31ec c63b 4fb4 f3bc
000001b0: 516e 7bbc 231d c73c b325 61bd 2336 9cbc
000001c0: c459 763c db86 c83a 492e 3abd 3dd9 6abd
000001d0: 5d35 5e3c f432 13bd e356 12bd 15bc 30bd
000001e0: 563a bc3c 4356 533c c933 59ba 8fa3 acbd
000001f0: bc68 c73c 29f0 2bbd 5c99 0b3c 72e6 aebd
00000200: 83da b03d 7de8 473b aab6 383d 567d 223d
00000210: 9e55 973d e342 9fbc dc52 b63c 697e 8c3c
00000220: 1ee1 b8bb baba 82bc 102b 64bc 4e2a 3f3d
00000230: 7048 e33c fc0b 15bc 94b7 d93c d770 2cbc
00000240: 6f03 ab3d 5d95 db3c 5988 163b 0996 0ebd
00000250: b580 9d3a 2eeb 52bd 3c74 8c3d 9ac5 243c
00000260: ed4a d33d e564 113c 7bdb af3c 3481 213d
00000270: 09f1 383d f5c9 bc3c 3ba1 923b 0283 583d
00000280: 11e5 3bbc a6e1 4abb ca68 8e3c 2222 4f3c
00000290: 8ca2 54bc b632 dbbc 68c4 f4bb 4c81 3c3d
000002a0: 9f50 523d 25bf f43c c3fe e73c a297 81bc
000002b0: 69a2 053d 59b6 41bd 6838 3d3c 8fac 83bb
000002c0: 6dba 4a3c 0578 a13c 43c1 1d3d 863b e83c
000002d0: 5de2 8bbb 30db 5d3b d0bd 06bc b57b 85bb
000002e0: cff0 73bd 3c8a 85bc 1cb3 bb3c e487 7bbd
000002f0: 9846 26bc 9794 a93d 0a13 e8bc a748 33bd
00000300: d13a f63c 6c5c 1f3d 538a 47bd 1602 9a3b
00000310: e34d 303d f1ec 92bc 8c42 71bd 600c 0ebd
00000320: 16f4 1fbd 2eb6 643d 69b3 c6bc ae99 2bbc
00000330: 9547 223d 02eb 023d 907a 88bc 081e 0b3d
00000340: ee86 ad3d 9dd4 77bb f484 c03c b98a 993c
00000350: 3a29 003d e750 a7bc 42ce ed3c f5ee 2f3d
00000360: 577f 80bc 37d5 a03d f12b 5dbd 2ed3 b03c
00000370: 79fe 0ebd afda 8d3c 93e3 c43c fdd0 0c3d
00000380: d7ad 1d3b cfbc 0e3d fa61 bd3c 516f 0abd
00000390: de7c 843d e1ed 393d bee8 383d 0c8e 4c3d
000003a0: 5a51 a13c 0ae8 5a3c 7d85 84bc f41f 4c3c
000003b0: cce8 ef3c c96e 133c b1db e83c 8637 39bc
000003c0: 9e46 45bd 689e 0a3d bf30 113b c76d 36bd
000003d0: 1f50 70bd 54c1 26bb 3053 c5bc ae78 0a3d
000003e0: 438c a5bc 1c3f d73c 50fb 55bd 5bbb 853d
000003f0: fcb9 9c3c 5232 20bc ae1a 3ebd d6a9 323c

actor.4.weight f4 [1, 300]
-0.10192251 0.002262841 0.13927668 0.08285092 0.06334284 0.124351 -0.06993733 0.08624606
0.14669302 0.04711668 -0.033647034 0.057773817 0.100894 0.0561646 0.0009705461 0.047276434
0.14372009 -0.03709878 0.13560098 0.09902141 -0.0011214376 0.028424568 0.08893974 0.13800465
0.07148972 0.051644832 0.06575654 0.17021726 0.06365632 0.10136876 0.08470979 0.00038083107
0.03652847 0.050574146 0.05065465 -0.066370636 -1.610742e-05 0.09845531 0.06287329 -0.06844639
0.0653244 0.08386206 -0.020917417 -0.14051098 0.09958667 -0.002849169 0.0006493643 -0.09046744
0.05268026 0.07725994 0.03967454 0.087664135 0.16185226 4.8264134e-05 0.025720345 0.06838123
0.065116994 0.050724875 0.13855651 0.06376669 0.027311556 0.066751376 0.06671089 0.116686605
0.048116703 0.00043888172 -0.002250651 0.15232013 -0.0007939514 -0.0004022318 0.043802503 0.07294229
-0.024582718 0.076422125 -0.087837666 0.054153603 -0.06882587 0.08506066 0.0005508933 -0.07188337
0.066763684 0.14613728 -0.06679327 -0.0003644335 -0.12132977 0.0023139727 0.14843278 0.13533556
0.08182436 0.037302874 0.09998397 0.053050686 0.03273439 -0.0021424398 -0.084245965 0.0318958
0.08626307 -0.0013396038 0.05206563 0.051668227 0.062271923 0.074692905 -0.0018126655 0.05465326
0.07810612 0.12734081 0.049801286 0.020729594 0.06502605 0.11865716 0.14286341 -0.0023002278
0.15512283 0.06847622 0.0005769222 -0.018559556 0.13965341 0.055485297 0.062569365 -0.00025466387
-0.0003555273 0.059825398 0.050620865 0.040285233 0.04925271 0.056553878 0.071506985 0.07363198
0.15280765 0.04875732 0.10802903 0.10826673 0.13598728 -0.0009888072 -0.059482608 0.034480337
0.048592363 0.025405765 0.066859104 0.11243531 -0.0005161616 0.046141706 0.05033132 0.06859737
-0.053705875 0.076606326 0.0022020594 0.044837903 -0.00041085144 -0.0015953905 0.06574786 0.15137874
-0.10333387 0.06854468 -0.001837938 0.022960119 -0.056648746 -0.00053583324 0.0003282998 0.17645827
-0.0007057254 0.073948994 -0.059816297 -0.0025691504 0.031679556 0.054926462 0.06754186 -0.058279395
0.09677035 0.056934822 -0.055682547 0.000517144 0.13884054 -0.0006690383 0.00042567123 0.041538246
-0.073443234 0.061143767 4.5565565e-05 0.0067905067 0.07394401 0.16741666 0.1251858 0.05133559
0.048850965 -0.00017640198 0.07812777 0.059976514 0.00030394748 0.14946279 0.05956087 0.048037108
-0.0012203761 0.10152101 0.089492306 0.16480273 0.10357751 0.05048028 0.04566515 0.06134022
0.06461221 0.07086459 0.11330115 0.078684725 0.16761269 0.07893631 -0.07671748 0.057368323
-0.05827226 0.05232531 -0.003106308 0.00082168134 -0.00023882267 0.053700317 0.002422281 0.08698352
0.082358465 -0.06034262 0.04751902 0.06041801 0.045735326 0.08485533 0.05550746 0.00028859574
0.08864516 0.067909874 0.08279182 0.023918094 0.09969596 -5.6997247e-05 -0.11057224 -0.054228086
0.00051106856 0.0007341646 0.068222135 0.07763281 0.00035932814 0.07254549 -0.05938387 0.05590769
0.038700864 0.06325214 -0.07219427 0.10020477 0.086332515 0.08446241 0.11724574 0.09419527
-0.0019003109 0.056013662 0.001022076 0.08370585 -0.0021267855 0.09252908 0.047983814 -0.05762552
00000000: c0bc d0bd 2c4c 143b 8c9e 0e3e bead a93d
00000010: e4b9 813d bdab fe3d 4e3b 8fbd c6a1 b03d
00000020: b236 163e 6bfd 403d 79d1 09bd 3da4 6c3d
00000030: 83a1 ce3d da0c 663d 3f6c 7e3a efa4 413d
00000040: 5c2b 133e e4f4 17bd fcda 0a3e bdcb ca3d
00000050: 34fd 92ba a4da e83c 0a26 b63d 1751 0d3e
00000060: 3469 923d 8889 533d 5dab 863d 6f4d 2e3e
00000070: 3f5e 823d 6d9a cf3d 547c ad3d 48aa c739
00000080: e19e 153d d626 4f3d 407b 4f3d 54ed 87bd
00000090: 6c1e 87b7 f0a2 c93d b6c3 803d 9f2d 8cbd
000000a0: cdc8 853d dfbf ab3d 015b abbc 1ce2 0fbe
000000b0: 19f4 cb3d 20b9 3abb 1a3a 2a3a fe46 b9bd
000000c0: 42c7 573d 763a 9e3d c581 223d 4189 b33d
000000d0: 99bc 253e 386f 4a38 79b3 d23c 750b 8c3d
000000e0: 0f5c 853d e3c4 4f3d c2e1 0d3e 1c98 823d
000000f0: 7cbc df3c f2b4 883d b89f 883d 63f9 ee3d
00000100: 0516 453d b519 e639 a87f 13bb cff9 1b3e
00000110: 2d21 50ba a3e2 d2b9 416a 333d c462 953d
00000120: b261 c9bc 3483 9c3d 3ce4 b3bd 2bd0 5d3d
00000130: 94f4 8cbd 4934 ae3d d369 103a 9737 93bd
00000140: 66bb 883d 03a5 153e e9ca 88bd 7011 bfb9
00000150: be7b f8bd 05a6 173b c3fe 173e 6895 0a3e
00000160: 8893 a73d e6ca 183d 65c4 cc3d ad4b 593d
00000170: 7f14 063d 2d68 0cbb 2689 acbd 2ca5 023d
00000180: b1aa b03d a595 afba c542 553d 10a2 533d
00000190: d810 7f3d 98f8 983d f696 edba 19dc 5f3d
000001a0: 1af6 9f3d a165 023e 6ffc 4b3d 1cd1 a93c
000001b0: 612c 853d 8602 f33d c94a 123e 6bbf 16bb
000001c0: 85d8 1e3e 433d 8c3d 983c 173a 360a 98bc
000001d0: 4e01 0f3e 8d44 633d 5e24 803d 6884 85b9
000001e0: 1166 bab9 7a0b 753d d357 4f3d 2102 253d
000001f0: 36bd 493d 0aa5 673d 4172 923d 5dcc 963d
00000200: 9c79 1c3e c1b5 473d 533e dd3d f3ba dd3d
00000210: 4040 0b3e dd9a 81ba 09a4 73bd 413b 0d3d
00000220: c908 473d c01f d03c 6ded 883d 7c44 e63d
00000230: 054f 07ba 16ff 3c3d 3728 4e3d c77c 8c3d
00000240: b1fa 5bbd c7e3 9c3d 6d50 103b f3a7 373d
00000250: 8c67 d7b9 6c1c d1ba d0a6 863d 0703 1b3e
00000260: b5a0 d3bd 2761 8c3d f7e6 f0ba dc16 bc3c
00000270: 8408 68bd 2977 0cba a71f ac39 7ab1 343e
00000280: 6e00 39ba 9272 973d ef01 75bd 315f 28bb
00000290: 6cc2 013d 92fa 603d 6353 8a3d 60b6 6ebd
000002a0: 892f c63d 7d34 693d 6213 64bd f290 073a
000002b0: 372c 0e3e 6662 2fba a02c df39 0224 2a3d
000002c0: 6869 96bd e371 7a3d a71d 3f38 e682 de3b
000002d0: f56f 973d 466f 2b3e b530 003e 4545 523d
000002e0: f317 483d 8cf8 38b9 7401 a03d efa9 753d
000002f0: 245b 9f39 c60c 193e 19f6 733d 8fc2 443d
00000300: 07f5 9fba 3fea cf3d be47 b73d 0cc2 283e
00000310: 7220 d43d 69c4 4e3d 610b 3b3d e23f 7b3d
00000320: 6853 843d 7421 913d 6f0a e83d 7525 a13d
00000330: a9a2 2b3e 5ca9 a13d 0e1e 9dbd 0cfb 6a3d
00000340: e5ae 6ebd 1053 563d 3393 4bbb 1a66 573a
00000350: 796c 7ab9 ddf4 5b3d 22bf 1e3b 6a24 b23d
00000360: 8eab a83d d329 77bd 4ea3 423d e078 773d
00000370: f754 3b3d a2c8 ad3d ca5b 633d aa4e 9739
00000380: 988b b53d 5514 8b3d c28e a93d e1ef c33c
00000390: 652d cc3d 5410 6fb8 b373 e2bd 451e 5ebd
000003a0: 3bf9 053a f474 403a 0cb8 8b3d f3fd 9e3d
000003b0: 3564 bc39 bb92 943d 803c 73bd 76ff 643d
000003c0: cc84 1e3d 578a 813d 97da 93bd 2938 cd3d
000003d0: 1acf b03d a1fa ac3d 891e f03d 73e9 c03d
000003e0: da13 f9ba 956e 653d 2ef7 853a f96d ab3d
000003f0: 8a61 0bbb e37f bd3d ad8a 443d bd08 6cbd
