cpts/rdpg_01_Pendulum-v0_cri.pth (torch_old, 400172 bytes, 7 tensors)

fc_in.weight f4 [128, 3]
0	0xbda26060	-0.07928538
1	0xbdb4b281	-0.088231094
2	0x3d2cfe02	0.04223443
3	0x3b01a4aa	0.0019781985
4	0xbc9d46c3	-0.01919878
5	0x3d61e116	0.0551463
6	0x3b2a3bb2	0.0025975523
7	0x3a7fe1f0	0.00097611453
8	0xbae8c537	-0.001775897
9	0x3ad2ced0	0.0016083363
10	0x3b17e0f6	0.0023174859
11	0x3a2aa90c	0.00065101753
12	0x3af514a4	0.0018698168
13	0xbb426faa	-0.0029668608
14	0xbb0bf9fc	-0.002135872
15	0xbd46c9ae	-0.04853218
16	0xbabc5e53	-0.0014371373
17	0x3d2845ad	0.041082073
18	0xbc7d356d	-0.015454632
19	0xbc9b5805	-0.01896287
20	0x3d4b7f90	0.0496822
21	0xbc2eecec	-0.010676604
22	0x3dab0b92	0.08351816
23	0x3d1af8b1	0.037834827
24	0x3d19fea4	0.03759636
25	0xbc6af99d	-0.014341739
26	0x3d3f2c79	0.04667327
27	0x3b1a2738	0.0023521911
28	0xb996dbe0	-0.0002877405
29	0xbb0a8615	-0.0021137048
30	0xbb3384a2	-0.0027392288
31	0x3ab69074	0.0013928548
32	0xb8a44180	-7.83233e-05
33	0xb8759d00	-5.855877e-05
34	0x3b10d30c	0.002209845
35	0x3acff3a8	0.0015865462
36	0xbd73decc	-0.059538648
37	0xbcb9ee89	-0.02269675
38	0xbd0a3f6d	-0.033751894
39	0x3a904fe4	0.0011010137
40	0x3b2553a0	0.0025226846
41	0xbaafcc24	-0.0013412279
42	0xbc45c23a	-0.012070233
43	0x3d8147e8	0.06312543
44	0x3d243324	0.040087834
45	0xbd79c4c6	-0.060978673
46	0xbde2085d	-0.110367514
47	0xbd292181	-0.041291717
48	0x3accad70	0.0015615653
49	0xbb41601e	-0.0029506753
50	0x3ad845c8	0.0016500289
51	0xbb36d1f2	-0.0027896133
52	0x3b374738	0.0027966034
53	0x3b3c1990	0.002870176
54	0x3ac70344	0.0015183468
55	0x3a69d2b8	0.0008919644
56	0x3b3ad5aa	0.0028508701
57	0x3ab28e5c	0.0013622749
58	0x3adafa04	0.001670659
59	0xbab3412a	-0.0013676037
60	0x3c1a8f48	0.009433575
61	0xbd2b66d3	-0.041846108
62	0x3da0dd58	0.07854718
63	0xbd1668f8	-0.0367212
64	0x3b0b3ad1	0.0021244774
65	0x3cfea3eb	0.031084022
66	0x3a40bbc8	0.00073522003
67	0xbad1058f	-0.0015947091
68	0x3b14cff4	0.0022706958
69	0xbab716ef	-0.0013968627
70	0x3b07ac2e	0.0020701992
71	0x399c8608	0.000298545
72	0xbce75e8e	-0.02824333
73	0x3c32ddac	0.0109171085
74	0x3cd1b0cb	0.025596997
75	0xbc9f379f	-0.019435702
76	0x3c225510	0.009907976
77	0x3cc1b40c	0.023645423
78	0xbd6b791e	-0.057488553
79	0xbd90876b	-0.07057079
80	0xbd21509d	-0.03938352
81	0x3b12cf0a	0.0022401237
82	0x3a50eda8	0.0007969984
83	0x3b387f3e	0.0028152014
84	0x3ab6518c	0.0013909801
85	0xbb011d90	-0.0019701459
86	0x389d5520	7.502199e-05
87	0xbcb36583	-0.02189899
88	0xbc70ce53	-0.014697629
89	0x3d0b0073	0.033935975
90	0xbaabf7b1	-0.0013120082
91	0xbb3c3d1f	-0.0028722954
92	0xba521484	-0.00080139213
93	0x3a4cf6fc	0.0007818786
94	0xbabfc89f	-0.0014631933
95	0x3b3fc502	0.0029261713
96	0xba9c68c3	-0.0011933077
97	0x3b20739a	0.0024482966
98	0x3af8d02c	0.0018982938
99	0xbd077879	-0.033073876
100	0xbd607724	-0.05480112
101	0xbd294e6b	-0.04133455
102	0xbc98c00d	-0.018646264
103	0x3b8fa7c0	0.004384011
104	0x3ccaac9b	0.024740508
105	0xbd65574a	-0.05599145
106	0xbcd6220a	-0.026139278
107	0xbcc3ccd6	-0.023901384
108	0xbd71b4fc	-0.05901049
109	0xbcdee6e2	-0.027209703
110	0xbd3e53ae	-0.046466522
111	0xbd2f7376	-0.04283472
112	0xbb8cf4d4	-0.0043016467
113	0x3cca9deb	0.024733504
114	0xbcb96011	-0.022628816
115	0xbd20b9e1	-0.039239768
116	0xbd5f7a2d	-0.054559875
117	0xbd64c7da	-0.055854656
118	0xbb2b1871	-0.0026107098
119	0x3cbd78ef	0.023128955
120	0xbdaaa41d	-0.083320834
121	0xbd8f890e	-0.07008563
122	0x3c36e80f	0.0111637255
123	0xbe884afc	-0.2661971
124	0x3adb9017	0.0016751316
125	0x3e718344	0.2358523
126	0xbe096182	-0.13416103
127	0x3dbf2b5d	0.09334443
128	0xbe15ed51	-0.1464131
129	0xbd60b507	-0.05486014
130	0xbd309bf1	-0.043117467
131	0xbd0f0640	-0.03491807
132	0x3b39d578	0.0028355997
133	0xb951d560	-0.00020011282
134	0xbb36194d	-0.0027786077
135	0xba90baf0	-0.001104204
136	0x3b39b398	0.0028335806
137	0xba9b2ccd	-0.0011838913
138	0x3cd0170e	0.025401618
139	0xbd0ab6da	-0.033865787
140	0x3d995e38	0.07488674
141	0xbca0b891	-0.019619258
142	0xbd2e27c1	-0.04251838
143	0xbd68be18	-0.056821913
144	0xb8c2c5e0	-9.287498e-05
145	0xbb0d438c	-0.0021555154
146	0xba9ff727	-0.0012204394
147	0xbd17e50d	-0.037083674
148	0xbcd22124	-0.025650568
149	0xbd49c5d8	-0.049260944
150	0x39d04ed0	0.0003973157
151	0x3b16e74e	0.0023026052
152	0xbb0a50b2	-0.0021105227
153	0xbabcf80e	-0.0014417188
154	0x3b0a84b6	0.002113623
155	0xba945906	-0.0011318035
156	0x39914c10	0.00027713226
157	0x3b3568ea	0.0027680942
158	0x3b04ae10	0.002024535
159	0xbe8fb8e4	-0.28070748
160	0xbde1e1f5	-0.11029426
161	0xbe210c4d	-0.15727349
162	0x3a9a25ec	0.0011760569
163	0x3a568778	0.00081836386
164	0x3aa889f8	0.0012858501
165	0xbcd81f2f	-0.026382057
166	0xbc07645a	-0.008263672
167	0x3cf0bc80	0.029386759
168	0x3a050b70	0.00050752517
169	0xbb40f5c3	-0.002944336
170	0x3ae3583c	0.0017345021
171	0xbcea55e3	-0.028605407
172	0x3cd5de42	0.026106957
173	0x3cf99f14	0.030471362
174	0xbcaa2d95	-0.020773688
175	0x3bbc5e13	0.005748519
176	0x3d022954	0.031777695
177	0xbd436b98	-0.04771003
178	0xbb9017b6	-0.004397358
179	0xbd3e51af	-0.04646462
180	0x3cf2704d	0.029594565
181	0xbc0234b9	-0.00794714
182	0x3d1d6fd7	0.038436737
183	0xbc1b0276	-0.009461036
184	0x3c987a07	0.018612875
185	0x3d4d09b7	0.050058093
186	0xb996a190	-0.00028730603
187	0x38ce6a00	9.8425895e-05
188	0x3aee15b0	0.0018164422
189	0x3a202488	0.0006108959
190	0x3a49f4c8	0.0007704017
191	0xbad81fca	-0.0016488966
192	0x3aef4bbf	0.0018256827
193	0xbd1194c6	-0.035542272
194	0x3d9051ef	0.070468776
195	0xbaf03c87	-0.0018328585
196	0x395b0530	0.000208874
197	0x3b26d842	0.002545849
198	0xbacc5de7	-0.001559195
199	0x3b2861fe	0.0025693174
200	0x3af446c8	0.0018636817
201	0x3b210fc8	0.0024576057
202	0x38e86400	0.000110812485
203	0x3aa51098	0.0012593446
204	0xbaf599c9	-0.0018737848
205	0x3aed9058	0.0018124683
206	0xbae4893c	-0.0017435919
207	0xbc9229f7	-0.017842276
208	0xbce3a249	-0.027787345
209	0xbd628825	-0.05530562
210	0xbb1c25e4	-0.0023826296
211	0x3afca928	0.0019276487
212	0x37385300	1.098658e-05
213	0xbcf74d98	-0.030188367
214	0x3aaab77f	0.0013024657
215	0x3d27d129	0.040970955
216	0xbc8749ef	-0.016514746
217	0xbc3bdb35	-0.011465837
218	0x3d58b13f	0.05290341
219	0xbcc57d76	-0.024107676
220	0xbcb5ee52	-0.022208367
221	0x3d5f9da0	0.054593682
222	0xbcc61a7b	-0.024182549
223	0x3ce3d0e1	0.027809562
224	0x3ce3d460	0.02781123
225	0x3a9fa364	0.0012179432
226	0xba5108f0	-0.0007974049
227	0x3b01f9ec	0.0019832803
228	0xba967185	-0.0011477923
229	0xba96ff44	-0.0011520167
230	0xbac80e3d	-0.0015263032
231	0x3b633c01	0.0034673216
232	0xbd089251	-0.033342663
233	0x3d8604ea	0.06543906
234	0x3cb2f91f	0.021847306
235	0xbd0a10e3	-0.03370751
236	0x3d926b5d	0.07149384
237	0x3cd23c65	0.025663564
238	0xbcb7a6d1	-0.022418411
239	0x3d58705b	0.052841526
240	0xbcbc4462	-0.022981826
241	0xbd4e1992	-0.050317355
242	0xbd8a9bc2	-0.0676799
243	0x3ae7d47c	0.0017687227
244	0xbac7cb31	-0.0015243051
245	0xbb1c5254	-0.0023852782
246	0x3b1139da	0.0022159726
247	0xbaa607cc	-0.0012667119
248	0x3b037382	0.0020057862
249	0xbaa82f2c	-0.0012831441
250	0x3ae44945	0.0017416856
251	0x3a2ff100	0.0006711632
252	0xba21f28d	-0.00061778055
253	0x3ddea476	0.10871212
254	0x3d1d804b	0.038452428
255	0x3aeca508	0.0018054554

fc_in.bias f4 [128]
0	0x3f1a90b6	0.6037706
1	0x3edcbace	0.4311127
2	0xbe0d2e04	-0.13787085
3	0xbdbff4fc	-0.09372899
4	0xbed830c5	-0.42224708
5	0x3e91df5c	0.28490722
6	0x3ec3435f	0.38137338
7	0x3e11bb9c	0.14231724
8	0x3f061c94	0.52387357
9	0xbdc7e154	-0.09759775
10	0xbe8b980d	-0.27264443
11	0xbd8760f8	-0.06610292
12	0x3e57c008	0.21069348
13	0xbeff08ba	-0.49811345
14	0x3e3b6130	0.18298793
15	0x3e2db272	0.16962603
16	0xbf0711a9	-0.5276132
17	0xbf06c401	-0.5264283
18	0xbe4459d0	-0.19174886
19	0xbee71cba	-0.45139104
20	0x3f1e1125	0.6174491
21	0x3e5ac317	0.21363483
22	0xbee9a952	-0.45636994
23	0xbeac0ec4	-0.33605015
24	0x3e2f08df	0.17093228
25	0x3e23f28b	0.16010492
26	0x3e48912c	0.19586629
27	0xbeae885a	-0.34088403
28	0xbd1b9470	-0.037983358
29	0x3e82e4e3	0.25565252
30	0xbdf4cc90	-0.1195308
31	0xbedc767f	-0.43059155
32	0xbd20a500	-0.039219856
33	0x3f0439a1	0.51650435
34	0x3e31be10	0.1735766
35	0x3e0d30c3	0.13788132
36	0x3e9da958	0.30793262
37	0x3e2a22af	0.16614793
38	0x3eca5af7	0.39522526
39	0x3e19faa1	0.15037014
40	0x3f05c7c6	0.52257955
41	0x3e114f11	0.14190318
42	0x3e52ec81	0.20598032
43	0x3f028c55	0.5099538
44	0xbe5e9326	-0.2173582
45	0xbdbbd194	-0.09170833
46	0x3f1a14bf	0.60187906
47	0x3f1071c9	0.5642362
48	0xbeb87084	-0.36023343
49	0x3f1f6c85	0.6227496
50	0xbec186f0	-0.37798262
51	0xbe11ea58	-0.14249551
52	0xbda78848	-0.081802905
53	0x3e27e0c3	0.16394334
54	0xbedae0be	-0.4274959
55	0x3e5b9769	0.21444477
56	0xbf122fad	-0.57104
57	0x3e3ccc4a	0.18437305
58	0x3e684972	0.22684267
59	0x3ea9184d	0.33026353
60	0x3f243e38	0.6415744
61	0x3eae0f4a	0.3399604
62	0xbe6785ca	-0.2260963
63	0xbdfcad50	-0.12337744
64	0x3f0d84eb	0.5528094
65	0xbe45373e	-0.19259354
66	0xbf07f1b2	-0.5310317
67	0xbea7d5e4	-0.32780373
68	0xbeb12910	-0.3460164
69	0x3ed2aeec	0.4114908
70	0xbee0b422	-0.4388743
71	0x3e970208	0.29493737
72	0x3ecc8009	0.39941433
73	0x3ed53534	0.41642153
74	0x3e25e29f	0.1619973
75	0xbef68ef2	-0.48155934
76	0xbeccf727	-0.40032312
77	0x3f048a97	0.5177397
78	0x3f12d9b9	0.5736347
79	0x3f1f2b3d	0.6217535
80	0x3eff11f4	0.49818385
81	0xbd7860d0	-0.060639203
82	0xbf0cefc3	-0.5505335
83	0xbc8dbc7d	-0.017301792
84	0x3df169f8	0.1178779
85	0xbe259832	-0.16171339
86	0xbf037d74	-0.513633
87	0xbef08017	-0.46972725
88	0x3eb5c735	0.35503545
89	0xbee5bdbe	-0.44871324
90	0xbcca5620	-0.02469927
91	0xbedf0953	-0.435618
92	0x3ee45299	0.44594267
93	0x3f07fbc7	0.53118557
94	0x3e203ff3	0.15649395
95	0x3d34b5ea	0.0441188
96	0xbf13ab04	-0.57682824
97	0xbee54f10	-0.44786882
98	0xbf07e9c6	-0.53091085
99	0xbdba0ce0	-0.09084487
100	0xbe988be2	-0.29794222
101	0xbef0e1d1	-0.47047284
102	0xbeaf598a	-0.34248
103	0xbe8b5d25	-0.272195
104	0xbde3ad58	-0.11117047
105	0xbf05efe2	-0.5231916
106	0x3e1946d5	0.14968427
107	0xbe027a14	-0.12741882
108	0x3e11969c	0.14217609
109	0xbc65e600	-0.014031887
110	0x3f10e648	0.5660138
111	0xbeab9cc8	-0.33518052
112	0x3dd1a144	0.10235837
113	0x3e4afee5	0.19823797
114	0xbec99e21	-0.39378455
115	0x3f1b20f7	0.60597175
116	0x3e836711	0.2566457
117	0x3e611f67	0.21984635
118	0x3e950194	0.29102767
119	0x3e11f8fe	0.14255139
120	0xbec52f9e	-0.38512892
121	0x3edac7e0	0.42730618
122	0x3e24ac03	0.16081242
123	0x3e8c72a3	0.2743121
124	0x3e7c83f6	0.24659714
125	0xbcb3c840	-0.021946073
126	0x3ed5dd75	0.4177052
127	0xbe2aadcc	-0.16667861

gru.weight_ih f4 [384, 128]
0	0x3cd931dd	0.026513034
1	0xbcc366b9	-0.023852693
2	0x3d67c992	0.056588717
3	0xbcbd3f04	-0.023101337
4	0x3c812a80	0.015767336
5	0xbc0be3c3	-0.008538189
6	0xbd90fb59	-0.07079191
7	0x3d48ca33	0.049020957
8	0xbd3107e9	-0.043220434
9	0xbd0f014b	-0.034913342
10	0xbd92205e	-0.0713508
11	0x3d1a0b76	0.037608586
12	0x3dae566d	0.08512578
13	0xbced3c4c	-0.028959416
14	0x3d8427a0	0.0645287
15	0x3d1d2430	0.03836459
16	0xbd0f97b2	-0.035056777
17	0xbd82e8fd	-0.06392095
18	0xbcee176a	-0.0290639
19	0x3ba16ee0	0.0049265474
20	0xbd20bb62	-0.039241202
21	0xbc73ac13	-0.014872569
22	0xbd1575a6	-0.03648915
23	0x3da3443d	0.07972
24	0xbdcce754	-0.1000506
25	0xbdc83d19	-0.097772785
26	0x3d011e99	0.03152332
27	0xbccd71ec	-0.025078736
28	0x3c3cde18	0.011527561
29	0x3bf76636	0.0075500263
30	0xbd9bdde4	-0.07610682
31	0xbd99d8bf	-0.07512044
32	0xbdb30568	-0.087412655
33	0xbc8a68b6	-0.016895633
34	0xbd75bfd7	-0.059997406
35	0xbba0c908	-0.0049067773
36	0x3d3ea8f8	0.04654786
37	0xbdbad2ba	-0.09122224
38	0x3cc74751	0.024325998
39	0xbd42af74	-0.047530606
40	0xbccae2b0	-0.024766296
41	0x3e526dc6	0.20549688
42	0xbe7b78be	-0.24557778
43	0x3d5b5299	0.05354557
44	0xbbf448a0	-0.0074549466
45	0xbc8547d8	-0.01626961
46	0x3c4938b9	0.01228159
47	0xbcbc3ac9	-0.02297725
48	0xbd300d57	-0.042981472
49	0xbba80064	-0.0051269997
50	0xbd83333b	-0.06406256
51	0xbdb44e2b	-0.08803972
52	0xbc5d2e30	-0.0134997815
53	0xbe8e83af	-0.27834842
54	0x3d4468e6	0.0479516
55	0x3ce6a441	0.028154494
56	0xbd6bbe50	-0.057554543
57	0x3d7497cf	0.05971509
58	0xbde921ea	-0.11383422
59	0x3de51526	0.11185674
60	0x3bcf334c	0.0063232537
61	0xbdf09d16	-0.11748712
62	0x3d71417a	0.058900334
63	0x3c16bc30	0.009200141
64	0xbda20233	-0.07910576
65	0xbd986f2c	-0.07443079
66	0x3d10292a	0.035195507
67	0x3da8f197	0.082492046
68	0xbc256510	-0.010094896
69	0x3d85c3a6	0.065314576
70	0xbd3ec5be	-0.0465753
71	0x3b8c61f2	0.004284137
72	0xbd820859	-0.063492484
73	0xbd82dd28	-0.063898385
74	0xbd50d144	-0.05098082
75	0x3d958653	0.07301011
76	0xbd91b491	-0.071145184
77	0xbdc69ad9	-0.096975036
78	0xbe0aa997	-0.13541256
79	0xbc026220	-0.007957965
80	0x3d9efc52	0.0776297
81	0xbd0301d5	-0.03198417
82	0xbd4383e7	-0.047733214
83	0xbd8d774b	-0.06907519
84	0xbd8f5062	-0.06997754
85	0x3daa60af	0.08319222
86	0x3d0ff70c	0.03514771
87	0x3d6d8602	0.057989128
88	0xbd1c1901	-0.038109783
89	0xbd47411a	-0.04864607
90	0x3d4e15c6	0.050313734
91	0xbdb3172a	-0.087446526
92	0xbd113e27	-0.035459664
93	0xbc926ce5	-0.01787419
94	0x3dcea87f	0.10090732
95	0x3b505640	0.003178969
96	0xbc084b88	-0.008318789
97	0x3d3b6cc2	0.045758016
98	0xbd1cc622	-0.03827489
99	0x3d8094db	0.06278392
100	0x3d555fba	0.052093245
101	0x3cc8cb30	0.02451095
102	0x3dac91ff	0.08426284
103	0x3db3c0b3	0.08776989
104	0xbda4fd3c	-0.08056113
105	0x3ca55518	0.020182177
106	0x3e943a75	0.2895085
107	0x3da842ad	0.082158424
108	0x3da3716b	0.07980617
109	0xbd4d988b	-0.050194304
110	0x3cbc4c72	0.02298567
111	0x3db1dda1	0.086848505
112	0x3d119421	0.035541657
113	0xbc8ef572	-0.017451022
114	0x3d724982	0.059152134
115	0xbe11ebd6	-0.1425012
116	0x3c05f520	0.008176118
117	0xbe975525	-0.29557148
118	0xbc7f740a	-0.015591631
119	0xbd8ae8cf	-0.06782686
120	0xbd3bee3e	-0.045881502
121	0xbdded852	-0.108811036
122	0xbda1a2c9	-0.07892377
123	0xbc7ca9f4	-0.015421379
124	0xbd397052	-0.045273133
125	0xbce004ba	-0.027346004
126	0xbcfc1285	-0.03077055
127	0x3d3f8122	0.04675401
128	0x3dfb99c6	0.12285189
129	0xbd3738ad	-0.044731785
130	0xbd625f85	-0.055266876
131	0xbdb07b5c	-0.08617279
132	0xbc6bd648	-0.01439435
133	0xbd76cffb	-0.06025694
134	0xbd593a6e	-0.05303424
135	0xbdceae27	-0.10091811
136	0xbc608fca	-0.013706157
137	0x3db3e641	0.08784152
138	0xbd82a3bb	-0.06378885
139	0x39c88b00	0.00038250536
140	0x3d282a3e	0.04105591
141	0xbd85c22c	-0.06531176
142	0xbd242d45	-0.040082235
143	0x3dd8463e	0.10560273
144	0x3cf12410	0.029436141
145	0xbd9ac961	-0.07557941
146	0x3c5c5bb0	0.013449594
147	0xbda1747f	-0.07883548
148	0xbdf5a317	-0.119939975
149	0xbdd611b3	-0.104525946
150	0xbbfd6ea0	-0.007734135
151	0xbd7d3830	-0.061821163
152	0x3c941960	0.018078506
153	0x3d21df75	0.039519746
154	0x3d1227fc	0.035682663
155	0x3dac234b	0.08405169
156	0x3d94b845	0.07261709
157	0xbe0000d8	-0.12500322
158	0xbd3c7558	-0.046010345
159	0xbc20b640	-0.009809077
160	0xbabcd900	-0.0014407933
161	0x3d2af2b9	0.041735385
162	0x3cb48b4a	0.022039074
163	0x3d51c08e	0.051209025
164	0xbd0c6c9c	-0.034283265
165	0xbd41b8b1	-0.047295276
166	0x3b6f2bbc	0.0036494574
167	0x3b829405	0.0039849305
168	0x3d41bf1c	0.047301397
169	0x3e982373	0.29714546
170	0xbe9c3a57	-0.3051326
171	0xbc8319e4	-0.016003557
172	0xbd7c1885	-0.06154682
173	0xbd05aa3c	-0.03263305
174	0xbd873245	-0.06601385
175	0x3cc82d22	0.024435584
176	0x3ad53740	0.0016267076
177	0xbcb838c6	-0.02248801
178	0xbc4197e0	-0.011815995
179	0xbda5b39e	-0.080909
180	0xbd25319a	-0.040330507
181	0xbe3f351e	-0.18672606
182	0xbcafce80	-0.021460772
183	0x3cb6be3e	0.022307511
184	0xbd318b8b	-0.04334597
185	0x3d373465	0.0447277
186	0x3ba43c36	0.0050120605
187	0x3d2fe0a5	0.042938847
188	0xbd2ca5a5	-0.04215016
189	0xbda1e5f5	-0.07905189
190	0xbd30d3a1	-0.043170575
191	0x3db176f1	0.086652644
192	0xbd286904	-0.041115776
193	0xbd8e891e	-0.06959747
194	0x3d9445e9	0.07239897
195	0x3d80bbc5	0.06285814
196	0x3cf1230c	0.029435657
197	0x3e05b4cb	0.13057248
198	0xbd8e97dd	-0.06962559
199	0xbd09bc52	-0.033626862
200	0xbe03cf3c	-0.12872022
201	0xbd60fb6b	-0.05492727
202	0xbd96b9c4	-0.07359651
203	0x3d86faf5	0.06590835
204	0x3d820ff1	0.06350697
205	0xbdac5e94	-0.08416477
206	0xbcf4d39c	-0.02988606
207	0x3d14502b	0.036209267
208	0x3d7463bf	0.059665438
209	0xbd1ababd	-0.037775744
210	0xbc9ddb28	-0.01926954
211	0x3d7af5ae	0.061269455
212	0x3d5d098d	0.053964186
213	0x3a404700	0.00073347986
214	0xbd649343	-0.055804502
215	0xbcbc78f8	-0.023006901
216	0xbd1c1013	-0.038101267
217	0xbd899e1f	-0.06719612
218	0x3a968c40	0.001148589
219	0xbd295e16	-0.041349493
220	0x3be714d6	0.0070520444
221	0x3c89a4f6	0.016802292
222	0x3db4fa72	0.08836831
223	0x3db10481	0.08643437
224	0xbd1bbfe5	-0.0380248
225	0x3d1d9a1e	0.038477056
226	0x3d751d1a	0.059842207
227	0xbd823ca6	-0.06359224
228	0x3c092920	0.008371621
229	0x3d264222	0.040590413
230	0xbca7995c	-0.02045887
231	0xbceba23e	-0.028763887
232	0x3c9ec7ac	0.01938232
233	0x3d69ac2e	0.05704897
234	0x3e2f9bd5	0.17149289
235	0x3d4e5c6e	0.050381117
236	0x3d697400	0.05699539
237	0xbd36ab59	-0.044597004
238	0xbc01a6eb	-0.0079133315
239	0xbcaae04c	-0.020858906
240	0x3c60d27b	0.013722057
241	0xbc43b146	-0.011944121
242	0xbda0a7fe	-0.07844542
243	0x3ca4cec5	0.020118127
244	0x3cefa768	0.02925463
245	0xbe8d5069	-0.2760041
246	0x3c92d9b6	0.017926078
247	0xbd188f76	-0.03724619
248	0xbc44f8d0	-0.012022212
249	0xbdae3118	-0.08505458
250	0xbdb005af	-0.08594834
251	0xbd42eefc	-0.047591195
252	0xbde7b55c	-0.113138884
253	0x3c5905a8	0.013245977
254	0x3af39a48	0.0018585408
255	0x3cd9257c	0.026507132

gru.weight_hh f4 [384, 128]
0	0xbd29f229	-0.041490708
1	0xbda53d6e	-0.080683574
2	0x3d944898	0.07240409
3	0xbd853ff6	-0.0650634
4	0xbd9e4acd	-0.07729111
5	0xbccbd13d	-0.024880046
6	0xbd09e000	-0.03366089
7	0x3da16ecf	0.07882463
8	0x3ca0afa1	0.019614996
9	0xbc3bfab8	-0.01147335
10	0x3d3f7934	0.046746448
11	0x3db5052e	0.088388786
12	0x3cea3418	0.028589293
13	0xbd95c521	-0.0731299
14	0xbcb29fbd	-0.021804685
15	0xbd641795	-0.055686552
16	0xbcb6b522	-0.022303168
17	0x3ce43ccd	0.027861023
18	0x3d93bf9e	0.072142825
19	0xbda2e805	-0.079544105
20	0xbc04b27e	-0.0080991965
21	0x3d9a0bfb	0.07521816
22	0xbcfddf74	-0.03099034
23	0xbc450843	-0.0120258955
24	0xbd91181c	-0.070846766
25	0xbdc6d870	-0.09709251
26	0x3d34ae15	0.04411133
27	0xbd107d5a	-0.035275795
28	0x3c961c5d	0.018324072
29	0xbc8fcfe4	-0.017555185
30	0x3d758be6	0.05994787
31	0xbd2ec1dd	-0.04266535
32	0x3da50ad0	0.08058703
33	0x3c83c860	0.016086757
34	0x3d99d69d	0.07511637
35	0xbc6bc77a	-0.014390821
36	0x3d7cd829	0.061729584
37	0x3d2fad19	0.04288969
38	0x3d12ddbc	0.035855994
39	0xbd126f86	-0.03575089
40	0xbc99aa13	-0.018757856
41	0xbdc4ab64	-0.09603003
42	0xbd8defc9	-0.06930501
43	0xbd529cdd	-0.051419128
44	0xbd810661	-0.06300045
45	0x3d7333db	0.059375625
46	0xbd53a37f	-0.051669594
47	0x3da19b4e	0.0789095
48	0x3d769d5e	0.06020867
49	0xbc855702	-0.01627684
50	0xbcd99874	-0.026561953
51	0x3c709de2	0.01468608
52	0xbcc4c907	-0.024021639
53	0xbc9af00a	-0.018913288
54	0xbd406869	-0.046974573
55	0x3d73f39a	0.05955849
56	0xbcfafaae	-0.030637112
57	0xbd0b7649	-0.034048352
58	0x3cd44acf	0.025914578
59	0x3d444d31	0.047925178
60	0xbdb67a6b	-0.08910068
61	0xbdba238b	-0.090888105
62	0x3c584b74	0.013201583
63	0x3d33bf73	0.043883752
64	0xbc8edea3	-0.017440146
65	0x3c0147a2	0.007890614
66	0x3ca335b4	0.019923069
67	0x3c0ce5ca	0.008599708
68	0xbd9c53c3	-0.07633164
69	0xbd443966	-0.047906302
70	0x3d8a5b92	0.06755747
71	0xbd25da6c	-0.040491506
72	0xbd24243e	-0.040073626
73	0x3da29c2b	0.07939943
74	0x3d355735	0.04427262
75	0xbd5a1f6b	-0.05325262
76	0x3d5eecdc	0.054425105
77	0x3c6f973b	0.0146234585
78	0xbd467a63	-0.04845656
79	0xbcfef59f	-0.03112298
80	0x3ca7c8f2	0.02048156
81	0xbd19e747	-0.03757408
82	0xbd225c12	-0.039638586
83	0xbc7f09fa	-0.015566343
84	0x3cc3ec8a	0.023916502
85	0x3cfb730f	0.030694513
86	0x3d83155b	0.064005576
87	0xbd61f2f1	-0.055163328
88	0x3cc7d26f	0.024392335
89	0x3c70f33f	0.014706432
90	0x3ce64d37	0.02811299
91	0xbd2d60dc	-0.0423287
92	0x3d48995f	0.04897439
93	0xbceebdc6	-0.029143225
94	0xbc864aaa	-0.016393024
95	0xbd159f0b	-0.03652863
96	0xbc872cbf	-0.016500829
97	0x3c494101	0.012283565
98	0x3d0113e4	0.03151311
99	0xbc5b3fa0	-0.013381869
100	0x3b97091b	0.0046092398
101	0x3dc118da	0.09428568
102	0xbcd69aef	-0.026196925
103	0x3d59225f	0.053011294
104	0xbcdf9b19	-0.027295636
105	0xbd51a9af	-0.051187214
106	0x3d9066c5	0.07050852
107	0x3d109cbe	0.03530573
108	0xbbad288a	-0.0052843736
109	0xbc88c32e	-0.016694631
110	0xbd36f6da	-0.04466901
111	0x3d0d3223	0.034471642
112	0x3d7c357f	0.061574455
113	0x3d892b3e	0.06697701
114	0xbd56f4ae	-0.05247944
115	0xbd9130ac	-0.070893615
116	0xbc9a5879	-0.018841015
117	0x3c5d1ab6	0.013495138
118	0x3d21f287	0.039537933
119	0x3c6b4d6a	0.014361719
120	0x3cc4ead8	0.024037763
121	0xbd8c1e44	-0.0684171
122	0xbd0c6090	-0.034271777
123	0xbd9c3edb	-0.07629176
124	0xbd3dfba5	-0.046382565
125	0xbd8a07c1	-0.0673976
126	0x3c8d9a78	0.01728557
127	0x3cbfe552	0.023424778
128	0xbd021cdf	-0.031765815
129	0x3d63037a	0.055423237
130	0x3cc97f6b	0.02459689
131	0xbcb20214	-0.021729507
132	0xbd93271d	-0.07185195
133	0x3daa81c1	0.0832553
134	0xbda7094e	-0.081560716
135	0x3cf3418d	0.029694343
136	0xbd6171cc	-0.055040166
137	0x3ca960bd	0.020676011
138	0x3d91c8ac	0.07118353
139	0x3da32bbf	0.07967328
140	0x3dbacb64	0.09120825
141	0xbd6ad680	-0.05733347
142	0xbcad7534	-0.02117405
143	0x3c3effdc	0.011657681
144	0x3d41f21a	0.047350027
145	0x3da7a654	0.081860214
146	0x3d701bbf	0.05862021
147	0xbd6009c7	-0.054696824
148	0xbd049cec	-0.032376215
149	0x3ca1a47f	0.019731758
150	0x3d502372	0.050815053
151	0x3d63106d	0.055435587
152	0x3d808de2	0.06277062
153	0xbca5e69a	-0.020251561
154	0x3cf8dfe6	0.0303802
155	0xbd1168c2	-0.035500295
156	0x3b6e7c14	0.0036389874
157	0xbc77da69	-0.015127757
158	0x3d04adee	0.032392435
159	0x3da37863	0.07981946
160	0xbdaeaf38	-0.08529514
161	0xbcb10b24	-0.021611758
162	0x3da13457	0.07871311
163	0xbd8d25d1	-0.068919785
164	0x3d5e8622	0.054327138
165	0xbd34e87d	-0.04416703
166	0x3db9880d	0.09059153
167	0x3cc30a21	0.02380854
168	0xbce8094d	-0.028324747
169	0xbd6a854a	-0.05725602
170	0xbc8b3493	-0.016992843
171	0xbda94b2c	-0.08266291
172	0xbd91ec0b	-0.071251
173	0xbbff48bf	-0.0077906544
174	0x3bd97df8	0.006637331
175	0xbd6cdfb3	-0.057830524
176	0xbc3b7c23	-0.011443171
177	0xbd4e56ee	-0.05037587
178	0x3d74bbbc	0.05974935
179	0x3ba2703a	0.004957226
180	0xbd077e00	-0.033079147
181	0x3d3e44d4	0.04645236
182	0x3c32afda	0.010906184
183	0x3c38e047	0.011283941
184	0xbdb31bf8	-0.08745569
185	0xbd38ea09	-0.04514507
186	0x3d298b9c	0.041392908
187	0x3d8a6532	0.06757583
188	0xbd55341a	-0.05205164
189	0x3d0272bb	0.031847697
190	0xbd6f4af9	-0.05842111
191	0xbb51fe28	-0.0032042358
192	0xbda6d964	-0.08146933
193	0x3d236775	0.039893586
194	0xbc8d1ea3	-0.017226523
195	0x3d33017e	0.043702595
196	0x3d20ee2f	0.03928965
197	0x3da9d612	0.08292784
198	0x3d28b8c1	0.04119182
199	0xbd40ec81	-0.047100548
200	0xbd96f4da	-0.073709205
201	0x3d3a5d29	0.045499
202	0x3da55062	0.080719724
203	0x3c9f0309	0.019410627
204	0x3d063e8e	0.0327745
205	0x3d8b2ea8	0.06796008
206	0x3d9274d2	0.07151188
207	0x3daddcef	0.08489405
208	0x3ce618f5	0.028088072
209	0xbcf0a963	-0.029377645
210	0x3c5d4811	0.0135059515
211	0xbcda4727	-0.026645256
212	0xbd3b73cf	-0.04576474
213	0xbab57ef8	-0.0013847044
214	0xbcb22f70	-0.021751136
215	0xbc2b71ab	-0.010464112
216	0x3c7b7b28	0.015349187
217	0x3d3cffad	0.04614227
218	0xbd5dbff6	-0.054138146
219	0x3d8e7cd4	0.06957403
220	0xbd961a21	-0.073292024
221	0x3c621b65	0.013800477
222	0x3cc33d78	0.023833022
223	0x3d0e70f6	0.034775697
224	0xbca44ace	-0.0200552
225	0x3da7aa0f	0.08186733
226	0xbc5daf46	-0.013530558
227	0x3da72e2c	0.081631035
228	0x3daf5ff4	0.085632235
229	0x3dac2cfd	0.08407018
230	0x3d965583	0.07340529
231	0x3bc4c3d0	0.006004788
232	0xbc9da7d8	-0.019245073
233	0xbd625497	-0.055256452
234	0xbd18389e	-0.03716337
235	0xbd5b25d7	-0.053502884
236	0xbcf554a5	-0.029947588
237	0x3c63e48c	0.01390947
238	0xbd16c035	-0.036804397
239	0xbc0d38ed	-0.008619529
240	0xbd9f6383	-0.07782652
241	0xbd8879d9	-0.066638656
242	0x3d2ec1ba	0.04266522
243	0x3da5c9bb	0.08095118
244	0x3db41725	0.08793477
245	0xbd7084f3	-0.05872054
246	0x3d57a7c0	0.052650213
247	0x3d892a9e	0.06697582
248	0x3db796ae	0.08964287
249	0x3bfec323	0.007774727
250	0x3d9bc809	0.07606513
251	0x3d8116cf	0.063031785
252	0x3ae88331	0.0017739293
253	0x3d686b6d	0.056743074
254	0xbd7a118e	-0.061051898
255	0xbbfe25e6	-0.0077559827

gru.bias_ih f4 [384]
0	0xbdb5e538	-0.08881611
1	0xbcf919c2	-0.03040779
2	0x3d13ea99	0.0361124
3	0xbd93fafe	-0.07225607
4	0xbcaaa8f4	-0.020832516
5	0xbc2322d2	-0.009957032
6	0x3cd60c6d	0.026128972
7	0x3d25cacb	0.0404766
8	0x3e068387	0.13136111
9	0xbd8cd4e1	-0.06876541
10	0xbd4de4ca	-0.05026702
11	0x3d2ff40e	0.042957358
12	0xba1a78c9	-0.0005892632
13	0xbca62a07	-0.020283712
14	0xbd889121	-0.06668306
15	0xb7bd1fd0	-2.254537e-05
16	0x3df00dc5	0.11721376
17	0x3bd4346d	0.006475976
18	0xbd8d3cae	-0.06896339
19	0xbc28f284	-0.0103117265
20	0xbdac485a	-0.084122375
21	0xbd72dcea	-0.05929271
22	0x3c670c23	0.014102015
23	0x3dbcbdf2	0.09215917
24	0x3d670fed	0.056411672
25	0xbd3441eb	-0.044008177
26	0x3d9ab6c4	0.07554391
27	0x3bec7dd8	0.00721715
28	0x3ccc33dc	0.024927072
29	0x3d9b8a32	0.07594718
30	0x3c41f002	0.0118370075
31	0x3d3325d0	0.043737233
32	0x3d89c6f3	0.067274
33	0xbd16ed97	-0.036847677
34	0xbcbc84a9	-0.023012476
35	0x3d75e237	0.06003019
36	0xbc948d78	-0.018133864
37	0xbd611c91	-0.054958884
38	0xbca63e42	-0.020293359
39	0xbc0ced9c	-0.008601572
40	0xbcd54391	-0.026033195
41	0xbbb9cb95	-0.005670021
42	0x3dc08acb	0.09401473
43	0xbda53f35	-0.080686964
44	0xbd46ddce	-0.048551373
45	0xbcaa4700	-0.020785809
46	0xbddb7ad8	-0.1071679
47	0x3ca924b8	0.020647392
48	0xbd258fae	-0.040420227
49	0x3bf55353	0.0074867397
50	0xbcd07e9f	-0.025451003
51	0xbda9505d	-0.08267281
52	0x3d7b0865	0.061287303
53	0xbd885a4f	-0.0665785
54	0x3d9c865b	0.07642814
55	0xbdae21f7	-0.08502572
56	0x3de60411	0.11231244
57	0x3cbff614	0.023432769
58	0xbd10ad02	-0.035321243
59	0xbdb0d84a	-0.08635004
60	0xbcd1100c	-0.025520347
61	0xbd4bdcd0	-0.04977113
62	0x3d1520e3	0.036408316
63	0x3d1095c1	0.035299066
64	0xbcc26333	-0.023728942
65	0xbd003812	-0.031303473
66	0x3d0dd031	0.034622375
67	0xbd946799	-0.07246322
68	0x3d600a2f	0.05469721
69	0x3d4f4fde	0.050613277
70	0xbdad9638	-0.084759176
71	0x3c6bbb6d	0.0143879475
72	0x3dd1da33	0.10246696
73	0xbd9e27be	-0.07722424
74	0x3d2276cd	0.03966408
75	0x3c1eee09	0.009700307
76	0x3d1a8d36	0.037732325
77	0x3d8b2778	0.067946374
78	0x3d839719	0.06425304
79	0x3da9b9db	0.08287402
80	0xbc626534	-0.013818074
81	0x3d5dbca6	0.054134987
82	0x3d856eed	0.06515298
83	0x3cf9c0a1	0.03048736
84	0xbdb1c13f	-0.08679437
85	0xbdd61605	-0.10453419
86	0x3da37de2	0.079829946
87	0xbcf11b25	-0.029431889
88	0xbdc5f7a6	-0.09666376
89	0xbd784f77	-0.06062266
90	0x3cf9a231	0.030472847
91	0xbdba388e	-0.09092818
92	0xbc7fe108	-0.0156176165
93	0xbdde3dbb	-0.10851618
94	0x3d865033	0.065582655
95	0x3d8a9d7e	0.067683205
96	0xbd93bb58	-0.07213467
97	0x3a804895	0.0009787256
98	0x3db1ec02	0.08687593
99	0xbd9f694c	-0.07783756
100	0xbdb38f51	-0.0876757
101	0x3beb45ed	0.0071799667
102	0xbc981f03	-0.018569475
103	0xbd3bac9f	-0.04581892
104	0xbd2c7574	-0.0421042
105	0x3d6b9444	0.057514444
106	0xbd1a8c31	-0.037731353
107	0xbd398f71	-0.045302812
108	0xbbbc68d4	-0.005749801
109	0xbd946393	-0.07245555
110	0x3b45be59	0.003017327
111	0xbccfb766	-0.025356006
112	0xbd63ee97	-0.05564746
113	0x3bc0c3ff	0.0058827396
114	0x3c010a40	0.007875979
115	0x3d4f8938	0.05066797
116	0xbda3d5f2	-0.07999791
117	0x3d89d322	0.067297235
118	0x3d7f8159	0.062379215
119	0xbc1e4392	-0.009659665
120	0x3c842868	0.016132548
121	0x3d67f0cf	0.056626137
122	0x3cd2499a	0.025669862
123	0x3d38a713	0.04508121
124	0xbc090a2b	-0.008364241
125	0xbd89499f	-0.06703495
126	0x3c91c374	0.017793395
127	0xbdb615b3	-0.088908575
128	0xbcfa30a5	-0.030540774
129	0xbe010812	-0.12600735
130	0xbe11e83d	-0.14248748
131	0xbd7102e5	-0.05884065
132	0xbe21e15a	-0.15808621
133	0xbe329c86	-0.17442521
134	0xbd0c7725	-0.034293313
135	0xbe683096	-0.22674784
136	0xbd02cef4	-0.031935647
137	0xbe3f856d	-0.18703242
138	0xbb9194be	-0.0044427803
139	0xbe167903	-0.146946
140	0xbe3545e3	-0.17702441
141	0xbdf52907	-0.11970716
142	0xbc2e30e6	-0.0106317755
143	0xbd1df1af	-0.038560566
144	0xbe4f8028	-0.20263731
145	0xbe180cd7	-0.14848648
146	0xbd6d11ce	-0.057878308
147	0xbe127f44	-0.1430636
148	0xbe30fd3c	-0.17284101
149	0xbe76ee13	-0.24114256
150	0xbe43a614	-0.19106323
151	0xbe183b9c	-0.14866489
152	0xbd7e0145	-0.06201293
153	0xbe39d58e	-0.18147871
154	0xbe06d02e	-0.13165352
155	0xbe4796b5	-0.19491084
156	0xbdf22904	-0.11824229
157	0xbe17525f	-0.14777516
158	0xbdace1c6	-0.084415
159	0xbe0d6c14	-0.1381076
160	0xbd4c2dc5	-0.049848337
161	0xbd849d9e	-0.064753756
162	0xbdb09959	-0.08622999
163	0xbdb0c323	-0.086309694
164	0x3d4473e5	0.04796209
165	0xbcd7c24c	-0.026337765
166	0xbd9cb64a	-0.076519564
167	0xbd75c5de	-0.060003154
168	0xbe183b88	-0.1486646
169	0xbe1cd0bd	-0.15314002
170	0xbdfadd14	-0.122491986
171	0xbe26780f	-0.16256736
172	0x3cc750f2	0.02433059
173	0xbde3cf75	-0.11123554
174	0xbda2a99b	-0.07942506
175	0xbd094fcc	-0.033523366
176	0x3d6e48e2	0.058174975
177	0xbd212963	-0.03934611
178	0xbda03067	-0.07821732
179	0xbde35dec	-0.111018986
180	0xbcbc68f8	-0.022999272
181	0xbe1f8fc5	-0.15582187
182	0xbe20cc48	-0.15702927
183	0x3cac6f83	0.021049267
184	0xbdf6192e	-0.120165214
185	0xbda464bf	-0.08027028
186	0xbcf49421	-0.02985579
187	0xbd8537d4	-0.06504789
188	0xbd7ccf1d	-0.061720956
189	0xbe10fbac	-0.14158505
190	0xbe3339a3	-0.17502455
191	0xbdb16d17	-0.08663385
192	0xbe7500f6	-0.23926148
193	0x3b959d47	0.004565868
194	0xbdcec1fb	-0.100955926
195	0xbde3fcbe	-0.11132191
196	0xbe2505af	-0.1611545
197	0xbe442d59	-0.19157924
198	0xbdb2f64c	-0.08738384
199	0xbddab3e8	-0.10678846
200	0xbe1d6c81	-0.15373422
201	0xbdde827a	-0.1086473
202	0xbddf9b60	-0.10918307
203	0xbe4ee891	-0.20205905
204	0xbdc686aa	-0.09693654
205	0xbde69412	-0.11258711
206	0xbda6a5d8	-0.08137101
207	0xbe23f324	-0.1601072
208	0xbe02e709	-0.12783445
209	0xbdfd2c8e	-0.12362014
210	0xbe08e131	-0.13367154
211	0xbd360b92	-0.044444628
212	0xba1621bc	-0.0005727073
213	0xbd89c83c	-0.06727645
214	0xbe38be2d	-0.18041296
215	0x3d02ea65	0.031961817
216	0xbe68e6e3	-0.22744326
217	0xbd576e2e	-0.05259531
218	0xbd5b2e80	-0.053511143
219	0xbe301d13	-0.17198591
220	0xbe233c6b	-0.15941016
221	0xbde4eaf4	-0.11177626
222	0xbd804b74	-0.062643915
223	0xbe00fd0a	-0.12596527
224	0xbd88e127	-0.066835694
225	0xbe002ad0	-0.12516332
226	0xbcd62d94	-0.02614478
227	0x3c4a6224	0.0123525
228	0xbdc45806	-0.09587102
229	0xbe3301ac	-0.17481107
230	0xbe3cf228	-0.1845175
231	0x3ae7ffe3	0.0017700162
232	0xbe27f4d8	-0.16401994
233	0xbc1f174a	-0.009710142
234	0xbde5d2c2	-0.112218395
235	0xbd417eef	-0.047240194
236	0xbe1d2dac	-0.15349454
237	0xbdf11f0b	-0.11773499
238	0xbda45e2d	-0.08025775
239	0x3cc8e9f3	0.024525618
240	0xbe274ad1	-0.16337134
241	0xbe2b9ef6	-0.16759858
242	0xbd8b348f	-0.06797134
243	0x3b6be9e0	0.0035997555
244	0xbe1ec230	-0.15503764
245	0xbbdba807	-0.00670338
246	0xbe4e0104	-0.20117575
247	0xbc651c95	-0.013983865
248	0xbe45f2f2	-0.19330958
249	0x3d29cd9c	0.04145585
250	0xbdff9217	-0.12479036
251	0xbdf3d525	-0.119058885
252	0xbdb92389	-0.09039981
253	0xbdba494c	-0.090960115
254	0xbe290b5b	-0.16508238
255	0xbdb4b262	-0.08823086

gru.bias_hh f4 [384]
0	0xbd80f8bb	-0.062974416
1	0xbd98ca74	-0.0746049
2	0x3dbd7ed2	0.09252705
3	0xbd39f6e0	-0.045401454
4	0xbdd3e791	-0.10346902
5	0x3dfefb38	0.1245026
6	0x3d2d8cbe	0.04237055
7	0xbb502648	-0.0031761099
8	0x3d8b85e9	0.06812651
9	0xbdc077b6	-0.09397833
10	0xbccdd8bd	-0.025127763
11	0xbd59099f	-0.05298769
12	0xbdade393	-0.08490672
13	0xbd1583db	-0.0365027
14	0x3b610672	0.0034336117
15	0x3cd9bd9f	0.026579676
16	0x3d0ef58a	0.034902133
17	0x3d82fd43	0.06395962
18	0xb8982b70	-7.256016e-05
19	0xbca1881e	-0.019718226
20	0xbcd49e98	-0.02595453
21	0x3da1ab21	0.078939684
22	0x3cc74d05	0.024328718
23	0x3e01c6c6	0.12673482
24	0x3d16ec60	0.03684652
25	0xbdc1d777	-0.09464925
26	0x3d772034	0.060333446
27	0x3d50b32a	0.050952114
28	0x3d0f1d6a	0.03494016
29	0xbd518dff	-0.05116081
30	0x3d43fcaa	0.04784838
31	0xbda785aa	-0.08179791
32	0x3d8a8c66	0.0676506
33	0xbca233bd	-0.019800061
34	0x3c8205c4	0.01587189
35	0xbd93b2e0	-0.07211852
36	0xbdba25fe	-0.09089278
37	0xbc8f072d	-0.017459476
38	0x3cc9673e	0.024585363
39	0x3cc7b39a	0.024377633
40	0xbdcbf3c7	-0.09958606
41	0xbd7026b3	-0.058630656
42	0x3d99d8f4	0.07512084
43	0xbd351228	-0.04420677
44	0xbcdb0f19	-0.026740598
45	0x3d8fbbcb	0.070182405
46	0xbddfbd15	-0.109247364
47	0xbcb4f651	-0.022090109
48	0x3cbb9b97	0.02290134
49	0xbd96f31b	-0.073705874
50	0xbd9a559f	-0.07535862
51	0xbcc03c03	-0.023466116
52	0x3d6e30d5	0.05815204
53	0x3d300d51	0.04298145
54	0x3d6822cb	0.056673806
55	0xbd799122	-0.060929425
56	0x3cd9c556	0.026583355
57	0xbd4cc5dc	-0.04999338
58	0xbd88728e	-0.066624746
59	0x3d54696f	0.05185836
60	0xbd0fe912	-0.035134383
61	0xbb075287	-0.0020648555
62	0xbd030da9	-0.03199545
63	0xbdc70b11	-0.097189076
64	0x3bd2ce79	0.006433305
65	0x3c7832a8	0.015148796
66	0xbd6ca6b7	-0.05777618
67	0xbcfd305f	-0.030906854
68	0xbd2611fb	-0.04054449
69	0x3c48599e	0.012228398
70	0xbda08af9	-0.07839007
71	0xbcf63eb3	-0.030059194
72	0xb9c1795e	-0.00036902254
73	0xbdab1e11	-0.08355344
74	0x3b1790bf	0.0023127047
75	0x3dd7e14b	0.10541018
76	0xbd72c5d1	-0.059270684
77	0xbd2b036d	-0.041751314
78	0xbdb02c4d	-0.086022
79	0xbd6f2ea2	-0.058394082
80	0x3d5d1359	0.05397353
81	0xbd9f7a83	-0.07787039
82	0xbdb11fd7	-0.08648651
83	0x3d57049f	0.05249464
84	0x3d5719b8	0.05251476
85	0x3cfd9ad0	0.03095761
86	0x3e01554e	0.12630197
87	0x3d985662	0.07438351
88	0xbd7c9971	-0.06166977
89	0xbc90449a	-0.017610837
90	0xbd080dd6	-0.03321632
91	0xbc404786	-0.0117358025
92	0x3d4735f9	0.048635457
93	0xbdd52f9d	-0.10409472
94	0x3d1f8aa1	0.038950566
95	0xbd0a4af6	-0.033762895
96	0xbde62505	-0.1123753
97	0x3da71095	0.0815746
98	0x3d9b14fe	0.07572363
99	0xbd3e3088	-0.046433
100	0xbb1493f2	-0.002267119
101	0x3bb6e059	0.0055809435
102	0x3da5bf30	0.08093107
103	0x3a5547d3	0.0008136008
104	0x3d29aaec	0.04142277
105	0x3a365686	0.0006955642
106	0xbcda6ebe	-0.026664134
107	0x3d678f2a	0.056533016
108	0x3ce48764	0.02789659
109	0x3d323b0b	0.04351334
110	0xbddd9886	-0.10820107
111	0x3bf1260e	0.007359273
112	0xbc8df8b1	-0.0173305
113	0xbd2a42b2	-0.04156751
114	0xbd69d08e	-0.05708366
115	0x3d1ed81d	0.03878032
116	0xbd9b26f3	-0.07575788
117	0xbdacec6d	-0.08443532
118	0xbdb1c5a5	-0.08680276
119	0x3d1cb6aa	0.03826014
120	0xbd55148a	-0.05202154
121	0xbcba248e	-0.022722509
122	0x3cbf7de6	0.023375463
123	0x3d0a501c	0.033767805
124	0x3d856222	0.06512858
125	0xbd938b8a	-0.07204349
126	0x3d7513d9	0.05983338
127	0x3d7cb138	0.061692446
128	0xbd77396a	-0.06035749
129	0xbd8925ef	-0.066966884
130	0xbdbf1a40	-0.09331179
131	0xbd02550d	-0.031819392
132	0xbe5771ad	-0.21039458
133	0xbe567056	-0.2094129
134	0xbd92b76a	-0.0716389
135	0xbdedb70c	-0.11607179
136	0xbe1f547c	-0.15559572
137	0xbe160594	-0.14650565
138	0xbd93f565	-0.0722454
139	0xbcabd6c1	-0.020976426
140	0xbdd66226	-0.10467939
141	0xbdc3b5fb	-0.095561944
142	0x3b863541	0.004095704
143	0xbe094233	-0.13404159
144	0xbe2d2d19	-0.16911735
145	0xbd2d83bb	-0.042361956
146	0xbdb221a0	-0.0869782
147	0xbdbd21e9	-0.092349835
148	0xbd7cae54	-0.06168969
149	0xbe610e54	-0.21978122
150	0xbe124e8f	-0.1428778
151	0xbe53f71a	-0.2069973
152	0xbe111f7f	-0.14172171
153	0xbd7805d7	-0.060552444
154	0xbce2f06d	-0.027702535
155	0xbe691193	-0.2276061
156	0xbd116bd8	-0.03550324
157	0xbe292f70	-0.16522002
158	0xbdbac8c7	-0.091203265
159	0xbdf12a2d	-0.117756225
160	0x3d59f24c	0.053209588
161	0xbdb8c645	-0.09022192
162	0xbdbc236e	-0.09186445
163	0xbdd219d5	-0.10258833
164	0x3d951a51	0.0728041
165	0x3d640a27	0.055673745
166	0xbdb06d50	-0.086146
167	0xbddd0e37	-0.10793727
168	0xbe6d1052	-0.23150757
169	0xbd0cd973	-0.034387063
170	0xbe0cc58d	-0.13747235
171	0xbe2590b1	-0.16168477
172	0xbda7e084	-0.0819712
173	0xbe024c80	-0.12724495
174	0xbc93165b	-0.017954996
175	0x3ca4ee0b	0.020133039
176	0xbd9de77b	-0.07710167
177	0x3c2c687d	0.010522959
178	0xbe1c99b6	-0.15293011
179	0xbe0cdbb7	-0.1375569
180	0xbcf4a9c2	-0.029866103
181	0xbe4fbdd8	-0.20287263
182	0xbdda38db	-0.106553756
183	0xbdc33a2e	-0.09532581
184	0xbe62c54b	-0.22145574
185	0xbd692c5c	-0.05692707
186	0xbd075568	-0.033040434
187	0xbe037481	-0.12837411
188	0xbd41aab5	-0.04728194
189	0xbe07c5ef	-0.132591
190	0xbdc1a101	-0.09454537
191	0x3ca15e9f	0.01969844
192	0xbe19c30a	-0.15015808
193	0xbd6a3a18	-0.05718431
194	0xbdec2855	-0.1153113
195	0xbd64c458	-0.05585131
196	0xbe170542	-0.147481
197	0xbd43726f	-0.047716554
198	0xbd921470	-0.071328044
199	0xbdc37ce0	-0.095453024
200	0xbde8ee4d	-0.11373577
201	0xbd2c80f3	-0.042115163
202	0xbe56e22a	-0.20984712
203	0xbe03fffc	-0.12890619
204	0xbd83ce14	-0.06435791
205	0xbe039a17	-0.1285175
206	0xbdf948ed	-0.121721126
207	0xbe231a73	-0.15928058
208	0xbe44f949	-0.1923572
209	0x3d373873	0.04473157
210	0xbe26ad04	-0.16276938
211	0xbd9933c2	-0.07480575
212	0xbca83726	-0.02053411
213	0xbdceec34	-0.10103646
214	0xbe08d454	-0.13362247
215	0xbd948b84	-0.07253173
216	0xbe3bb519	-0.18330802
217	0xbe4ec468	-0.2019211
218	0xbdd5edd5	-0.104457535
219	0xbd3c8cf0	-0.046032846
220	0xbdc3c8c6	-0.09559779
221	0xbe0a865b	-0.13527815
222	0x3d2a95cd	0.041646767
223	0xbc4e760b	-0.012601386
224	0xbd908c20	-0.07057977
225	0xbe09ec01	-0.13468935
226	0xbc7e4571	-0.015519486
227	0x3d478287	0.048708465
228	0xbdcf9016	-0.10134904
229	0xbe30aaa3	-0.17252593
230	0xbe397434	-0.18110734
231	0xbe1d4ef3	-0.15362148
232	0xbd5d8b64	-0.05408801
233	0xbe02ee4b	-0.12786214
234	0xbe1821af	-0.148566
235	0x3cb4fe84	0.022094019
236	0xbd535762	-0.051597007
237	0xbe26b8e1	-0.16281463
238	0xbdddcbda	-0.10829897
239	0xbdbe2ff0	-0.09286487
240	0xbe030f47	-0.12798797
241	0xbd84d322	-0.06485583
242	0xbe180356	-0.14845023
243	0xbd93ccfc	-0.07216832
244	0xbe5a3766	-0.21310195
245	0xbe02ffb4	-0.12792856
246	0xbe175142	-0.14777091
247	0xbdd06533	-0.10175552
248	0xbdec4adf	-0.11537718
249	0x3cc6b71a	0.024257232
250	0xbdde736b	-0.10861858
251	0xbe014ba0	-0.12626505
252	0xbe1ce41d	-0.15321393
253	0xbd61cc36	-0.05512639
254	0xbe3a6b74	-0.18205053
255	0xbd7da60d	-0.061925936

fc_out.weight f4 [1, 128]
0	0x3e4bad60	0.19890356
1	0x3e14d365	0.14533766
2	0xbe6941c7	-0.22778998
3	0x3e648e2e	0.22319862
4	0xbe3ecc17	-0.18632542
5	0xbcb90318	-0.022584483
6	0xbe45f31e	-0.19331023
7	0x3e0f65c0	0.14003658
8	0x3c9707cb	0.018436333
9	0xbe84fdd3	-0.25974903
10	0xbe395d52	-0.18102005
11	0x3e1c0593	0.15236501
12	0x3e7e3e8a	0.24828544
13	0x3e38dc52	0.18052796
14	0xbe712f4f	-0.23553203
15	0x3e534a5d	0.20633836
16	0xbbd53421	-0.0065064584
17	0x3e72a737	0.236966
18	0xbe094dad	-0.13408537
19	0xbe93d1ff	-0.28871152
20	0x3e4e207d	0.20129581
21	0x3c583a5b	0.013197507
22	0x3c83a70a	0.016070861
23	0xbbfc0ae7	-0.0076917293
24	0xbea6ca7f	-0.32576367
25	0xbe4b3aac	-0.198466
26	0x3e666542	0.22499564
27	0xbea5c55d	-0.3237714
28	0xbe4016bd	-0.18758674
29	0xbe5e8c87	-0.21733294
30	0xbc1d88ac	-0.009615105
31	0x3e52e825	0.20596369
32	0xbe7bcbdc	-0.24589485
33	0xbe45db8e	-0.19322035
34	0x3e5a80a9	0.21338142
35	0x3e58a13a	0.21155253
36	0xbe88a3c5	-0.26687446
37	0x3e7cdc14	0.24693328
38	0x3e35cbfa	0.17753592
39	0x3e4c4093	0.19946508
40	0xbea56840	-0.323061
41	0xbe8d935e	-0.27651495
42	0xbcb7ac21	-0.022420945
43	0x3e563b14	0.20920974
44	0x3e663960	0.22482824
45	0xbe5f03a9	-0.2177874
46	0xbe76e462	-0.24110559
47	0xbe6ded01	-0.23234941
48	0xbe7c6643	-0.24648385
49	0xbe58ae62	-0.21160272
50	0x3e69f63f	0.22847842
51	0xbe5ae708	-0.21377194
52	0x3e5c744a	0.21528736
53	0x3e751c93	0.23936681
54	0xbc95e4d9	-0.0182976
55	0x3e5991ee	0.21247074
56	0x3b85ec10	0.0040869787
57	0x3e5c2d35	0.2150162
58	0xbe4cdc04	-0.20005804
59	0xbe56f189	-0.20990576
60	0xbe6ead69	-0.23308338
61	0xbe3e3b73	-0.18577366
62	0xbe93ae67	-0.28843996
63	0x3e56cc40	0.20976353
64	0x3c74672d	0.014917177
65	0x3e90fd77	0.28318378
66	0x3e6f6639	0.23378839
67	0x3e706db8	0.23479354
68	0x3e6fe060	0.23425436
69	0xbe812846	-0.2522604
70	0xbe31c906	-0.1736184
71	0xbe52739f	-0.20551918
72	0xbc34a8f1	-0.011026607
73	0x3e6a0fd9	0.22857608
74	0xbe7be59e	-0.24599311
75	0x3cb54421	0.022127213
76	0x3e52bd31	0.20579983
77	0x3e850f61	0.25988296
78	0xbe5b7b35	-0.21433719
79	0xbcf94858	-0.030430004
80	0xbe4b5ffa	-0.19860831
81	0xbe44b98c	-0.19211406
82	0x3e2dc40c	0.16969317
83	0x3e294d61	0.16533424
84	0x3e5e8ed7	0.21734177
85	0x3ea14cad	0.3150381
86	0x3c7c7621	0.0154090235
87	0xbe687363	-0.22700267
88	0x3e6f0067	0.23339997
89	0xbe964d30	-0.29355764
90	0x3e5552b3	0.20832328
91	0x3e7e4c5b	0.24833815
92	0x3bb2f0ae	0.00546082
93	0x3e6288f3	0.22122554
94	0xbe7444b5	-0.23854335
95	0xbe77060a	-0.24123397
96	0x3e889906	0.26679248
97	0xbdf4637d	-0.119330384
98	0x3e465c8c	0.19371241
99	0xbe4a1d7c	-0.1973781
100	0xbe7990e5	-0.24371679
101	0x3e6c7618	0.23091924
102	0x3db836b0	0.08994806
103	0x3e77a943	0.24185662
104	0xbe53ec50	-0.20695615
105	0x3e7bd3d1	0.2459252
106	0xbe81d05a	-0.25354272
107	0x3e8367b7	0.25665066
108	0x3e9ea056	0.30981702
109	0xbe67bda8	-0.22630942
110	0xbe7bf310	-0.2460444
111	0xbe741ac9	-0.23838343
112	0xbe4f3945	-0.2023669
113	0xbe90167a	-0.28142148
114	0xbe897f2f	-0.26854846
115	0xbe4b4bd8	-0.19853151
116	0x3e952404	0.2912904
117	0x3e3b9609	0.18318953
118	0x3e17e1ed	0.14832278
119	0xbe302d27	-0.17204724
120	0x3e3b5d99	0.18297423
121	0x3e7d365e	0.2472777
122	0x3e8d843c	0.2763995
123	0xbc273590	-0.010205641
124	0x3c3bc371	0.011460171
125	0x3e5a65d5	0.21327908
126	0x3bdd533a	0.006754306
127	0xbe6394f4	-0.2222479
